node {
  name: "global_step/Initializer/zeros"
  op: "Const"
  attr {
    key: "_class"
    value {
      list {
        s: "loc:@global_step"
      }
    }
  }
  attr {
    key: "_output_shapes"
    value {
      list {
        shape {
        }
      }
    }
  }
  attr {
    key: "dtype"
    value {
      type: DT_INT64
    }
  }
  attr {
    key: "value"
    value {
      tensor {
        dtype: DT_INT64
        tensor_shape {
        }
        int64_val: 0
      }
    }
  }
}
node {
  name: "global_step"
  op: "VariableV2"
  attr {
    key: "_class"
    value {
      list {
        s: "loc:@global_step"
      }
    }
  }
  attr {
    key: "_output_shapes"
    value {
      list {
        shape {
        }
      }
    }
  }
  attr {
    key: "container"
    value {
      s: ""
    }
  }
  attr {
    key: "dtype"
    value {
      type: DT_INT64
    }
  }
  attr {
    key: "shape"
    value {
      shape {
      }
    }
  }
  attr {
    key: "shared_name"
    value {
      s: ""
    }
  }
}
node {
  name: "global_step/Assign"
  op: "Assign"
  input: "global_step"
  input: "global_step/Initializer/zeros"
  attr {
    key: "T"
    value {
      type: DT_INT64
    }
  }
  attr {
    key: "_class"
    value {
      list {
        s: "loc:@global_step"
      }
    }
  }
  attr {
    key: "_output_shapes"
    value {
      list {
        shape {
        }
      }
    }
  }
  attr {
    key: "use_locking"
    value {
      b: true
    }
  }
  attr {
    key: "validate_shape"
    value {
      b: true
    }
  }
}
node {
  name: "global_step/read"
  op: "Identity"
  input: "global_step"
  attr {
    key: "T"
    value {
      type: DT_INT64
    }
  }
  attr {
    key: "_class"
    value {
      list {
        s: "loc:@global_step"
      }
    }
  }
  attr {
    key: "_output_shapes"
    value {
      list {
        shape {
        }
      }
    }
  }
}
node {
  name: "global_step/IsVariableInitialized"
  op: "IsVariableInitialized"
  input: "global_step"
  attr {
    key: "_class"
    value {
      list {
        s: "loc:@global_step"
      }
    }
  }
  attr {
    key: "_output_shapes"
    value {
      list {
        shape {
        }
      }
    }
  }
  attr {
    key: "dtype"
    value {
      type: DT_INT64
    }
  }
}
node {
  name: "global_step/cond/Switch"
  op: "Switch"
  input: "global_step/IsVariableInitialized"
  input: "global_step/IsVariableInitialized"
  attr {
    key: "T"
    value {
      type: DT_BOOL
    }
  }
  attr {
    key: "_output_shapes"
    value {
      list {
        shape {
        }
        shape {
        }
      }
    }
  }
}
node {
  name: "global_step/cond/switch_t"
  op: "Identity"
  input: "global_step/cond/Switch:1"
  attr {
    key: "T"
    value {
      type: DT_BOOL
    }
  }
  attr {
    key: "_output_shapes"
    value {
      list {
        shape {
        }
      }
    }
  }
}
node {
  name: "global_step/cond/switch_f"
  op: "Identity"
  input: "global_step/cond/Switch"
  attr {
    key: "T"
    value {
      type: DT_BOOL
    }
  }
  attr {
    key: "_output_shapes"
    value {
      list {
        shape {
        }
      }
    }
  }
}
node {
  name: "global_step/cond/pred_id"
  op: "Identity"
  input: "global_step/IsVariableInitialized"
  attr {
    key: "T"
    value {
      type: DT_BOOL
    }
  }
  attr {
    key: "_output_shapes"
    value {
      list {
        shape {
        }
      }
    }
  }
}
node {
  name: "global_step/cond/read"
  op: "Identity"
  input: "global_step/cond/read/Switch:1"
  attr {
    key: "T"
    value {
      type: DT_INT64
    }
  }
  attr {
    key: "_output_shapes"
    value {
      list {
        shape {
        }
      }
    }
  }
}
node {
  name: "global_step/cond/read/Switch"
  op: "RefSwitch"
  input: "global_step"
  input: "global_step/cond/pred_id"
  attr {
    key: "T"
    value {
      type: DT_INT64
    }
  }
  attr {
    key: "_class"
    value {
      list {
        s: "loc:@global_step"
      }
    }
  }
  attr {
    key: "_output_shapes"
    value {
      list {
        shape {
        }
        shape {
        }
      }
    }
  }
}
node {
  name: "global_step/cond/Switch_1"
  op: "Switch"
  input: "global_step/Initializer/zeros"
  input: "global_step/cond/pred_id"
  attr {
    key: "T"
    value {
      type: DT_INT64
    }
  }
  attr {
    key: "_class"
    value {
      list {
        s: "loc:@global_step"
      }
    }
  }
  attr {
    key: "_output_shapes"
    value {
      list {
        shape {
        }
        shape {
        }
      }
    }
  }
}
node {
  name: "global_step/cond/Merge"
  op: "Merge"
  input: "global_step/cond/Switch_1"
  input: "global_step/cond/read"
  attr {
    key: "N"
    value {
      i: 2
    }
  }
  attr {
    key: "T"
    value {
      type: DT_INT64
    }
  }
  attr {
    key: "_output_shapes"
    value {
      list {
        shape {
        }
        shape {
        }
      }
    }
  }
}
node {
  name: "global_step/add/y"
  op: "Const"
  attr {
    key: "_output_shapes"
    value {
      list {
        shape {
        }
      }
    }
  }
  attr {
    key: "dtype"
    value {
      type: DT_INT64
    }
  }
  attr {
    key: "value"
    value {
      tensor {
        dtype: DT_INT64
        tensor_shape {
        }
        int64_val: 0
      }
    }
  }
}
node {
  name: "global_step/add"
  op: "Add"
  input: "global_step/cond/Merge"
  input: "global_step/add/y"
  attr {
    key: "T"
    value {
      type: DT_INT64
    }
  }
  attr {
    key: "_output_shapes"
    value {
      list {
        shape {
        }
      }
    }
  }
}
node {
  name: "tensors/component_0"
  op: "Const"
  device: "/device:CPU:0"
  attr {
    key: "_output_shapes"
    value {
      list {
        shape {
          dim {
            size: 331
          }
        }
      }
    }
  }
  attr {
    key: "dtype"
    value {
      type: DT_STRING
    }
  }
  attr {
    key: "value"
    value {
      tensor {
        dtype: DT_STRING
        tensor_shape {
          dim {
            size: 331
          }
        }
        string_val: "./nsfnet/50_nodes_route/tfrecords/train/results_synth50_12_AP_k_100.tfrecords"
        string_val: "./nsfnet/50_nodes_route/tfrecords/train/results_synth50_12_AP_k_101.tfrecords"
        string_val: "./nsfnet/50_nodes_route/tfrecords/train/results_synth50_12_AP_k_102.tfrecords"
        string_val: "./nsfnet/50_nodes_route/tfrecords/train/results_synth50_12_AP_k_103.tfrecords"
        string_val: "./nsfnet/50_nodes_route/tfrecords/train/results_synth50_12_AP_k_105.tfrecords"
        string_val: "./nsfnet/50_nodes_route/tfrecords/train/results_synth50_12_AP_k_106.tfrecords"
        string_val: "./nsfnet/50_nodes_route/tfrecords/train/results_synth50_12_AP_k_108.tfrecords"
        string_val: "./nsfnet/50_nodes_route/tfrecords/train/results_synth50_12_AP_k_109.tfrecords"
        string_val: "./nsfnet/50_nodes_route/tfrecords/train/results_synth50_12_AP_k_10.tfrecords"
        string_val: "./nsfnet/50_nodes_route/tfrecords/train/results_synth50_12_AP_k_110.tfrecords"
        string_val: "./nsfnet/50_nodes_route/tfrecords/train/results_synth50_12_AP_k_111.tfrecords"
        string_val: "./nsfnet/50_nodes_route/tfrecords/train/results_synth50_12_AP_k_112.tfrecords"
        string_val: "./nsfnet/50_nodes_route/tfrecords/train/results_synth50_12_AP_k_113.tfrecords"
        string_val: "./nsfnet/50_nodes_route/tfrecords/train/results_synth50_12_AP_k_114.tfrecords"
        string_val: "./nsfnet/50_nodes_route/tfrecords/train/results_synth50_12_AP_k_116.tfrecords"
        string_val: "./nsfnet/50_nodes_route/tfrecords/train/results_synth50_12_AP_k_117.tfrecords"
        string_val: "./nsfnet/50_nodes_route/tfrecords/train/results_synth50_12_AP_k_118.tfrecords"
        string_val: "./nsfnet/50_nodes_route/tfrecords/train/results_synth50_12_AP_k_11.tfrecords"
        string_val: "./nsfnet/50_nodes_route/tfrecords/train/results_synth50_12_AP_k_120.tfrecords"
        string_val: "./nsfnet/50_nodes_route/tfrecords/train/results_synth50_12_AP_k_121.tfrecords"
        string_val: "./nsfnet/50_nodes_route/tfrecords/train/results_synth50_12_AP_k_122.tfrecords"
        string_val: "./nsfnet/50_nodes_route/tfrecords/train/results_synth50_12_AP_k_124.tfrecords"
        string_val: "./nsfnet/50_nodes_route/tfrecords/train/results_synth50_12_AP_k_125.tfrecords"
        string_val: "./nsfnet/50_nodes_route/tfrecords/train/results_synth50_12_AP_k_126.tfrecords"
        string_val: "./nsfnet/50_nodes_route/tfrecords/train/results_synth50_12_AP_k_12.tfrecords"
        string_val: "./nsfnet/50_nodes_route/tfrecords/train/results_synth50_12_AP_k_130.tfrecords"
        string_val: "./nsfnet/50_nodes_route/tfrecords/train/results_synth50_12_AP_k_131.tfrecords"
        string_val: "./nsfnet/50_nodes_route/tfrecords/train/results_synth50_12_AP_k_132.tfrecords"
        string_val: "./nsfnet/50_nodes_route/tfrecords/train/results_synth50_12_AP_k_133.tfrecords"
        string_val: "./nsfnet/50_nodes_route/tfrecords/train/results_synth50_12_AP_k_134.tfrecords"
        string_val: "./nsfnet/50_nodes_route/tfrecords/train/results_synth50_12_AP_k_135.tfrecords"
        string_val: "./nsfnet/50_nodes_route/tfrecords/train/results_synth50_12_AP_k_136.tfrecords"
        string_val: "./nsfnet/50_nodes_route/tfrecords/train/results_synth50_12_AP_k_137.tfrecords"
        string_val: "./nsfnet/50_nodes_route/tfrecords/train/results_synth50_12_AP_k_138.tfrecords"
        string_val: "./nsfnet/50_nodes_route/tfrecords/train/results_synth50_12_AP_k_13.tfrecords"
        string_val: "./nsfnet/50_nodes_route/tfrecords/train/results_synth50_12_AP_k_15.tfrecords"
        string_val: "./nsfnet/50_nodes_route/tfrecords/train/results_synth50_12_AP_k_16.tfrecords"
        string_val: "./nsfnet/50_nodes_route/tfrecords/train/results_synth50_12_AP_k_17.tfrecords"
        string_val: "./nsfnet/50_nodes_route/tfrecords/train/results_synth50_12_AP_k_18.tfrecords"
        string_val: "./nsfnet/50_nodes_route/tfrecords/train/results_synth50_12_AP_k_19.tfrecords"
        string_val: "./nsfnet/50_nodes_route/tfrecords/train/results_synth50_12_AP_k_1.tfrecords"
        string_val: "./nsfnet/50_nodes_route/tfrecords/train/results_synth50_12_AP_k_20.tfrecords"
        string_val: "./nsfnet/50_nodes_route/tfrecords/train/results_synth50_12_AP_k_21.tfrecords"
        string_val: "./nsfnet/50_nodes_route/tfrecords/train/results_synth50_12_AP_k_22.tfrecords"
        string_val: "./nsfnet/50_nodes_route/tfrecords/train/results_synth50_12_AP_k_23.tfrecords"
        string_val: "./nsfnet/50_nodes_route/tfrecords/train/results_synth50_12_AP_k_24.tfrecords"
        string_val: "./nsfnet/50_nodes_route/tfrecords/train/results_synth50_12_AP_k_25.tfrecords"
        string_val: "./nsfnet/50_nodes_route/tfrecords/train/results_synth50_12_AP_k_26.tfrecords"
        string_val: "./nsfnet/50_nodes_route/tfrecords/train/results_synth50_12_AP_k_27.tfrecords"
        string_val: "./nsfnet/50_nodes_route/tfrecords/train/results_synth50_12_AP_k_28.tfrecords"
        string_val: "./nsfnet/50_nodes_route/tfrecords/train/results_synth50_12_AP_k_29.tfrecords"
        string_val: "./nsfnet/50_nodes_route/tfrecords/train/results_synth50_12_AP_k_2.tfrecords"
        string_val: "./nsfnet/50_nodes_route/tfrecords/train/results_synth50_12_AP_k_33.tfrecords"
        string_val: "./nsfnet/50_nodes_route/tfrecords/train/results_synth50_12_AP_k_34.tfrecords"
        string_val: "./nsfnet/50_nodes_route/tfrecords/train/results_synth50_12_AP_k_36.tfrecords"
        string_val: "./nsfnet/50_nodes_route/tfrecords/train/results_synth50_12_AP_k_38.tfrecords"
        string_val: "./nsfnet/50_nodes_route/tfrecords/train/results_synth50_12_AP_k_39.tfrecords"
        string_val: "./nsfnet/50_nodes_route/tfrecords/train/results_synth50_12_AP_k_3.tfrecords"
        string_val: "./nsfnet/50_nodes_route/tfrecords/train/results_synth50_12_AP_k_40.tfrecords"
        string_val: "./nsfnet/50_nodes_route/tfrecords/train/results_synth50_12_AP_k_41.tfrecords"
        string_val: "./nsfnet/50_nodes_route/tfrecords/train/results_synth50_12_AP_k_43.tfrecords"
        string_val: "./nsfnet/50_nodes_route/tfrecords/train/results_synth50_12_AP_k_44.tfrecords"
        string_val: "./nsfnet/50_nodes_route/tfrecords/train/results_synth50_12_AP_k_46.tfrecords"
        string_val: "./nsfnet/50_nodes_route/tfrecords/train/results_synth50_12_AP_k_47.tfrecords"
        string_val: "./nsfnet/50_nodes_route/tfrecords/train/results_synth50_12_AP_k_48.tfrecords"
        string_val: "./nsfnet/50_nodes_route/tfrecords/train/results_synth50_12_AP_k_49.tfrecords"
        string_val: "./nsfnet/50_nodes_route/tfrecords/train/results_synth50_12_AP_k_50.tfrecords"
        string_val: "./nsfnet/50_nodes_route/tfrecords/train/results_synth50_12_AP_k_51.tfrecords"
        string_val: "./nsfnet/50_nodes_route/tfrecords/train/results_synth50_12_AP_k_53.tfrecords"
        string_val: "./nsfnet/50_nodes_route/tfrecords/train/results_synth50_12_AP_k_54.tfrecords"
        string_val: "./nsfnet/50_nodes_route/tfrecords/train/results_synth50_12_AP_k_55.tfrecords"
        string_val: "./nsfnet/50_nodes_route/tfrecords/train/results_synth50_12_AP_k_56.tfrecords"
        string_val: "./nsfnet/50_nodes_route/tfrecords/train/results_synth50_12_AP_k_57.tfrecords"
        string_val: "./nsfnet/50_nodes_route/tfrecords/train/results_synth50_12_AP_k_58.tfrecords"
        string_val: "./nsfnet/50_nodes_route/tfrecords/train/results_synth50_12_AP_k_59.tfrecords"
        string_val: "./nsfnet/50_nodes_route/tfrecords/train/results_synth50_12_AP_k_5.tfrecords"
        string_val: "./nsfnet/50_nodes_route/tfrecords/train/results_synth50_12_AP_k_60.tfrecords"
        string_val: "./nsfnet/50_nodes_route/tfrecords/train/results_synth50_12_AP_k_61.tfrecords"
        string_val: "./nsfnet/50_nodes_route/tfrecords/train/results_synth50_12_AP_k_62.tfrecords"
        string_val: "./nsfnet/50_nodes_route/tfrecords/train/results_synth50_12_AP_k_63.tfrecords"
        string_val: "./nsfnet/50_nodes_route/tfrecords/train/results_synth50_12_AP_k_65.tfrecords"
        string_val: "./nsfnet/50_nodes_route/tfrecords/train/results_synth50_12_AP_k_66.tfrecords"
        string_val: "./nsfnet/50_nodes_route/tfrecords/train/results_synth50_12_AP_k_68.tfrecords"
        string_val: "./nsfnet/50_nodes_route/tfrecords/train/results_synth50_12_AP_k_69.tfrecords"
        string_val: "./nsfnet/50_nodes_route/tfrecords/train/results_synth50_12_AP_k_72.tfrecords"
        string_val: "./nsfnet/50_nodes_route/tfrecords/train/results_synth50_12_AP_k_73.tfrecords"
        string_val: "./nsfnet/50_nodes_route/tfrecords/train/results_synth50_12_AP_k_75.tfrecords"
        string_val: "./nsfnet/50_nodes_route/tfrecords/train/results_synth50_12_AP_k_76.tfrecords"
        string_val: "./nsfnet/50_nodes_route/tfrecords/train/results_synth50_12_AP_k_77.tfrecords"
        string_val: "./nsfnet/50_nodes_route/tfrecords/train/results_synth50_12_AP_k_78.tfrecords"
        string_val: "./nsfnet/50_nodes_route/tfrecords/train/results_synth50_12_AP_k_7.tfrecords"
        string_val: "./nsfnet/50_nodes_route/tfrecords/train/results_synth50_12_AP_k_80.tfrecords"
        string_val: "./nsfnet/50_nodes_route/tfrecords/train/results_synth50_12_AP_k_81.tfrecords"
        string_val: "./nsfnet/50_nodes_route/tfrecords/train/results_synth50_12_AP_k_82.tfrecords"
        string_val: "./nsfnet/50_nodes_route/tfrecords/train/results_synth50_12_AP_k_83.tfrecords"
        string_val: "./nsfnet/50_nodes_route/tfrecords/train/results_synth50_12_AP_k_84.tfrecords"
        string_val: "./nsfnet/50_nodes_route/tfrecords/train/results_synth50_12_AP_k_85.tfrecords"
        string_val: "./nsfnet/50_nodes_route/tfrecords/train/results_synth50_12_AP_k_86.tfrecords"
        string_val: "./nsfnet/50_nodes_route/tfrecords/train/results_synth50_12_AP_k_87.tfrecords"
        string_val: "./nsfnet/50_nodes_route/tfrecords/train/results_synth50_12_AP_k_88.tfrecords"
        string_val: "./nsfnet/50_nodes_route/tfrecords/train/results_synth50_12_AP_k_89.tfrecords"
        string_val: "./nsfnet/50_nodes_route/tfrecords/train/results_synth50_12_AP_k_8.tfrecords"
        string_val: "./nsfnet/50_nodes_route/tfrecords/train/results_synth50_12_AP_k_90.tfrecords"
        string_val: "./nsfnet/50_nodes_route/tfrecords/train/results_synth50_12_AP_k_91.tfrecords"
        string_val: "./nsfnet/50_nodes_route/tfrecords/train/results_synth50_12_AP_k_92.tfrecords"
        string_val: "./nsfnet/50_nodes_route/tfrecords/train/results_synth50_12_AP_k_93.tfrecords"
        string_val: "./nsfnet/50_nodes_route/tfrecords/train/results_synth50_12_AP_k_95.tfrecords"
        string_val: "./nsfnet/50_nodes_route/tfrecords/train/results_synth50_12_AP_k_96.tfrecords"
        string_val: "./nsfnet/50_nodes_route/tfrecords/train/results_synth50_12_AP_k_98.tfrecords"
        string_val: "./nsfnet/50_nodes_route/tfrecords/train/results_synth50_12_AP_k_99.tfrecords"
        string_val: "./nsfnet/50_nodes_route/tfrecords/train/results_synth50_12_AP_k_9.tfrecords"
        string_val: "./nsfnet/50_nodes_route/tfrecords/train/results_synth50_15_AP_k_100.tfrecords"
        string_val: "./nsfnet/50_nodes_route/tfrecords/train/results_synth50_15_AP_k_101.tfrecords"
        string_val: "./nsfnet/50_nodes_route/tfrecords/train/results_synth50_15_AP_k_102.tfrecords"
        string_val: "./nsfnet/50_nodes_route/tfrecords/train/results_synth50_15_AP_k_104.tfrecords"
        string_val: "./nsfnet/50_nodes_route/tfrecords/train/results_synth50_15_AP_k_105.tfrecords"
        string_val: "./nsfnet/50_nodes_route/tfrecords/train/results_synth50_15_AP_k_106.tfrecords"
        string_val: "./nsfnet/50_nodes_route/tfrecords/train/results_synth50_15_AP_k_107.tfrecords"
        string_val: "./nsfnet/50_nodes_route/tfrecords/train/results_synth50_15_AP_k_108.tfrecords"
        string_val: "./nsfnet/50_nodes_route/tfrecords/train/results_synth50_15_AP_k_10.tfrecords"
        string_val: "./nsfnet/50_nodes_route/tfrecords/train/results_synth50_15_AP_k_112.tfrecords"
        string_val: "./nsfnet/50_nodes_route/tfrecords/train/results_synth50_15_AP_k_113.tfrecords"
        string_val: "./nsfnet/50_nodes_route/tfrecords/train/results_synth50_15_AP_k_114.tfrecords"
        string_val: "./nsfnet/50_nodes_route/tfrecords/train/results_synth50_15_AP_k_116.tfrecords"
        string_val: "./nsfnet/50_nodes_route/tfrecords/train/results_synth50_15_AP_k_117.tfrecords"
        string_val: "./nsfnet/50_nodes_route/tfrecords/train/results_synth50_15_AP_k_118.tfrecords"
        string_val: "./nsfnet/50_nodes_route/tfrecords/train/results_synth50_15_AP_k_119.tfrecords"
        string_val: "./nsfnet/50_nodes_route/tfrecords/train/results_synth50_15_AP_k_120.tfrecords"
        string_val: "./nsfnet/50_nodes_route/tfrecords/train/results_synth50_15_AP_k_121.tfrecords"
        string_val: "./nsfnet/50_nodes_route/tfrecords/train/results_synth50_15_AP_k_122.tfrecords"
        string_val: "./nsfnet/50_nodes_route/tfrecords/train/results_synth50_15_AP_k_123.tfrecords"
        string_val: "./nsfnet/50_nodes_route/tfrecords/train/results_synth50_15_AP_k_124.tfrecords"
        string_val: "./nsfnet/50_nodes_route/tfrecords/train/results_synth50_15_AP_k_125.tfrecords"
        string_val: "./nsfnet/50_nodes_route/tfrecords/train/results_synth50_15_AP_k_126.tfrecords"
        string_val: "./nsfnet/50_nodes_route/tfrecords/train/results_synth50_15_AP_k_127.tfrecords"
        string_val: "./nsfnet/50_nodes_route/tfrecords/train/results_synth50_15_AP_k_128.tfrecords"
        string_val: "./nsfnet/50_nodes_route/tfrecords/train/results_synth50_15_AP_k_12.tfrecords"
        string_val: "./nsfnet/50_nodes_route/tfrecords/train/results_synth50_15_AP_k_130.tfrecords"
        string_val: "./nsfnet/50_nodes_route/tfrecords/train/results_synth50_15_AP_k_131.tfrecords"
        string_val: "./nsfnet/50_nodes_route/tfrecords/train/results_synth50_15_AP_k_132.tfrecords"
        string_val: "./nsfnet/50_nodes_route/tfrecords/train/results_synth50_15_AP_k_133.tfrecords"
        string_val: "./nsfnet/50_nodes_route/tfrecords/train/results_synth50_15_AP_k_134.tfrecords"
        string_val: "./nsfnet/50_nodes_route/tfrecords/train/results_synth50_15_AP_k_136.tfrecords"
        string_val: "./nsfnet/50_nodes_route/tfrecords/train/results_synth50_15_AP_k_138.tfrecords"
        string_val: "./nsfnet/50_nodes_route/tfrecords/train/results_synth50_15_AP_k_13.tfrecords"
        string_val: "./nsfnet/50_nodes_route/tfrecords/train/results_synth50_15_AP_k_14.tfrecords"
        string_val: "./nsfnet/50_nodes_route/tfrecords/train/results_synth50_15_AP_k_15.tfrecords"
        string_val: "./nsfnet/50_nodes_route/tfrecords/train/results_synth50_15_AP_k_16.tfrecords"
        string_val: "./nsfnet/50_nodes_route/tfrecords/train/results_synth50_15_AP_k_19.tfrecords"
        string_val: "./nsfnet/50_nodes_route/tfrecords/train/results_synth50_15_AP_k_1.tfrecords"
        string_val: "./nsfnet/50_nodes_route/tfrecords/train/results_synth50_15_AP_k_20.tfrecords"
        string_val: "./nsfnet/50_nodes_route/tfrecords/train/results_synth50_15_AP_k_21.tfrecords"
        string_val: "./nsfnet/50_nodes_route/tfrecords/train/results_synth50_15_AP_k_22.tfrecords"
        string_val: "./nsfnet/50_nodes_route/tfrecords/train/results_synth50_15_AP_k_23.tfrecords"
        string_val: "./nsfnet/50_nodes_route/tfrecords/train/results_synth50_15_AP_k_25.tfrecords"
        string_val: "./nsfnet/50_nodes_route/tfrecords/train/results_synth50_15_AP_k_27.tfrecords"
        string_val: "./nsfnet/50_nodes_route/tfrecords/train/results_synth50_15_AP_k_28.tfrecords"
        string_val: "./nsfnet/50_nodes_route/tfrecords/train/results_synth50_15_AP_k_29.tfrecords"
        string_val: "./nsfnet/50_nodes_route/tfrecords/train/results_synth50_15_AP_k_2.tfrecords"
        string_val: "./nsfnet/50_nodes_route/tfrecords/train/results_synth50_15_AP_k_30.tfrecords"
        string_val: "./nsfnet/50_nodes_route/tfrecords/train/results_synth50_15_AP_k_32.tfrecords"
        string_val: "./nsfnet/50_nodes_route/tfrecords/train/results_synth50_15_AP_k_33.tfrecords"
        string_val: "./nsfnet/50_nodes_route/tfrecords/train/results_synth50_15_AP_k_34.tfrecords"
        string_val: "./nsfnet/50_nodes_route/tfrecords/train/results_synth50_15_AP_k_36.tfrecords"
        string_val: "./nsfnet/50_nodes_route/tfrecords/train/results_synth50_15_AP_k_37.tfrecords"
        string_val: "./nsfnet/50_nodes_route/tfrecords/train/results_synth50_15_AP_k_38.tfrecords"
        string_val: "./nsfnet/50_nodes_route/tfrecords/train/results_synth50_15_AP_k_39.tfrecords"
        string_val: "./nsfnet/50_nodes_route/tfrecords/train/results_synth50_15_AP_k_3.tfrecords"
        string_val: "./nsfnet/50_nodes_route/tfrecords/train/results_synth50_15_AP_k_41.tfrecords"
        string_val: "./nsfnet/50_nodes_route/tfrecords/train/results_synth50_15_AP_k_42.tfrecords"
        string_val: "./nsfnet/50_nodes_route/tfrecords/train/results_synth50_15_AP_k_44.tfrecords"
        string_val: "./nsfnet/50_nodes_route/tfrecords/train/results_synth50_15_AP_k_46.tfrecords"
        string_val: "./nsfnet/50_nodes_route/tfrecords/train/results_synth50_15_AP_k_47.tfrecords"
        string_val: "./nsfnet/50_nodes_route/tfrecords/train/results_synth50_15_AP_k_48.tfrecords"
        string_val: "./nsfnet/50_nodes_route/tfrecords/train/results_synth50_15_AP_k_49.tfrecords"
        string_val: "./nsfnet/50_nodes_route/tfrecords/train/results_synth50_15_AP_k_4.tfrecords"
        string_val: "./nsfnet/50_nodes_route/tfrecords/train/results_synth50_15_AP_k_50.tfrecords"
        string_val: "./nsfnet/50_nodes_route/tfrecords/train/results_synth50_15_AP_k_51.tfrecords"
        string_val: "./nsfnet/50_nodes_route/tfrecords/train/results_synth50_15_AP_k_53.tfrecords"
        string_val: "./nsfnet/50_nodes_route/tfrecords/train/results_synth50_15_AP_k_54.tfrecords"
        string_val: "./nsfnet/50_nodes_route/tfrecords/train/results_synth50_15_AP_k_55.tfrecords"
        string_val: "./nsfnet/50_nodes_route/tfrecords/train/results_synth50_15_AP_k_57.tfrecords"
        string_val: "./nsfnet/50_nodes_route/tfrecords/train/results_synth50_15_AP_k_58.tfrecords"
        string_val: "./nsfnet/50_nodes_route/tfrecords/train/results_synth50_15_AP_k_59.tfrecords"
        string_val: "./nsfnet/50_nodes_route/tfrecords/train/results_synth50_15_AP_k_5.tfrecords"
        string_val: "./nsfnet/50_nodes_route/tfrecords/train/results_synth50_15_AP_k_60.tfrecords"
        string_val: "./nsfnet/50_nodes_route/tfrecords/train/results_synth50_15_AP_k_63.tfrecords"
        string_val: "./nsfnet/50_nodes_route/tfrecords/train/results_synth50_15_AP_k_64.tfrecords"
        string_val: "./nsfnet/50_nodes_route/tfrecords/train/results_synth50_15_AP_k_66.tfrecords"
        string_val: "./nsfnet/50_nodes_route/tfrecords/train/results_synth50_15_AP_k_67.tfrecords"
        string_val: "./nsfnet/50_nodes_route/tfrecords/train/results_synth50_15_AP_k_69.tfrecords"
        string_val: "./nsfnet/50_nodes_route/tfrecords/train/results_synth50_15_AP_k_6.tfrecords"
        string_val: "./nsfnet/50_nodes_route/tfrecords/train/results_synth50_15_AP_k_70.tfrecords"
        string_val: "./nsfnet/50_nodes_route/tfrecords/train/results_synth50_15_AP_k_72.tfrecords"
        string_val: "./nsfnet/50_nodes_route/tfrecords/train/results_synth50_15_AP_k_73.tfrecords"
        string_val: "./nsfnet/50_nodes_route/tfrecords/train/results_synth50_15_AP_k_74.tfrecords"
        string_val: "./nsfnet/50_nodes_route/tfrecords/train/results_synth50_15_AP_k_75.tfrecords"
        string_val: "./nsfnet/50_nodes_route/tfrecords/train/results_synth50_15_AP_k_76.tfrecords"
        string_val: "./nsfnet/50_nodes_route/tfrecords/train/results_synth50_15_AP_k_77.tfrecords"
        string_val: "./nsfnet/50_nodes_route/tfrecords/train/results_synth50_15_AP_k_78.tfrecords"
        string_val: "./nsfnet/50_nodes_route/tfrecords/train/results_synth50_15_AP_k_7.tfrecords"
        string_val: "./nsfnet/50_nodes_route/tfrecords/train/results_synth50_15_AP_k_80.tfrecords"
        string_val: "./nsfnet/50_nodes_route/tfrecords/train/results_synth50_15_AP_k_81.tfrecords"
        string_val: "./nsfnet/50_nodes_route/tfrecords/train/results_synth50_15_AP_k_82.tfrecords"
        string_val: "./nsfnet/50_nodes_route/tfrecords/train/results_synth50_15_AP_k_84.tfrecords"
        string_val: "./nsfnet/50_nodes_route/tfrecords/train/results_synth50_15_AP_k_85.tfrecords"
        string_val: "./nsfnet/50_nodes_route/tfrecords/train/results_synth50_15_AP_k_86.tfrecords"
        string_val: "./nsfnet/50_nodes_route/tfrecords/train/results_synth50_15_AP_k_87.tfrecords"
        string_val: "./nsfnet/50_nodes_route/tfrecords/train/results_synth50_15_AP_k_89.tfrecords"
        string_val: "./nsfnet/50_nodes_route/tfrecords/train/results_synth50_15_AP_k_8.tfrecords"
        string_val: "./nsfnet/50_nodes_route/tfrecords/train/results_synth50_15_AP_k_90.tfrecords"
        string_val: "./nsfnet/50_nodes_route/tfrecords/train/results_synth50_15_AP_k_91.tfrecords"
        string_val: "./nsfnet/50_nodes_route/tfrecords/train/results_synth50_15_AP_k_92.tfrecords"
        string_val: "./nsfnet/50_nodes_route/tfrecords/train/results_synth50_15_AP_k_93.tfrecords"
        string_val: "./nsfnet/50_nodes_route/tfrecords/train/results_synth50_15_AP_k_94.tfrecords"
        string_val: "./nsfnet/50_nodes_route/tfrecords/train/results_synth50_15_AP_k_95.tfrecords"
        string_val: "./nsfnet/50_nodes_route/tfrecords/train/results_synth50_15_AP_k_96.tfrecords"
        string_val: "./nsfnet/50_nodes_route/tfrecords/train/results_synth50_15_AP_k_97.tfrecords"
        string_val: "./nsfnet/50_nodes_route/tfrecords/train/results_synth50_15_AP_k_98.tfrecords"
        string_val: "./nsfnet/50_nodes_route/tfrecords/train/results_synth50_15_AP_k_99.tfrecords"
        string_val: "./nsfnet/50_nodes_route/tfrecords/train/results_synth50_15_AP_k_9.tfrecords"
        string_val: "./nsfnet/50_nodes_route/tfrecords/train/results_synth50_9_AP_k_100.tfrecords"
        string_val: "./nsfnet/50_nodes_route/tfrecords/train/results_synth50_9_AP_k_103.tfrecords"
        string_val: "./nsfnet/50_nodes_route/tfrecords/train/results_synth50_9_AP_k_104.tfrecords"
        string_val: "./nsfnet/50_nodes_route/tfrecords/train/results_synth50_9_AP_k_105.tfrecords"
        string_val: "./nsfnet/50_nodes_route/tfrecords/train/results_synth50_9_AP_k_106.tfrecords"
        string_val: "./nsfnet/50_nodes_route/tfrecords/train/results_synth50_9_AP_k_108.tfrecords"
        string_val: "./nsfnet/50_nodes_route/tfrecords/train/results_synth50_9_AP_k_109.tfrecords"
        string_val: "./nsfnet/50_nodes_route/tfrecords/train/results_synth50_9_AP_k_10.tfrecords"
        string_val: "./nsfnet/50_nodes_route/tfrecords/train/results_synth50_9_AP_k_110.tfrecords"
        string_val: "./nsfnet/50_nodes_route/tfrecords/train/results_synth50_9_AP_k_111.tfrecords"
        string_val: "./nsfnet/50_nodes_route/tfrecords/train/results_synth50_9_AP_k_112.tfrecords"
        string_val: "./nsfnet/50_nodes_route/tfrecords/train/results_synth50_9_AP_k_113.tfrecords"
        string_val: "./nsfnet/50_nodes_route/tfrecords/train/results_synth50_9_AP_k_114.tfrecords"
        string_val: "./nsfnet/50_nodes_route/tfrecords/train/results_synth50_9_AP_k_115.tfrecords"
        string_val: "./nsfnet/50_nodes_route/tfrecords/train/results_synth50_9_AP_k_116.tfrecords"
        string_val: "./nsfnet/50_nodes_route/tfrecords/train/results_synth50_9_AP_k_11.tfrecords"
        string_val: "./nsfnet/50_nodes_route/tfrecords/train/results_synth50_9_AP_k_121.tfrecords"
        string_val: "./nsfnet/50_nodes_route/tfrecords/train/results_synth50_9_AP_k_122.tfrecords"
        string_val: "./nsfnet/50_nodes_route/tfrecords/train/results_synth50_9_AP_k_123.tfrecords"
        string_val: "./nsfnet/50_nodes_route/tfrecords/train/results_synth50_9_AP_k_124.tfrecords"
        string_val: "./nsfnet/50_nodes_route/tfrecords/train/results_synth50_9_AP_k_125.tfrecords"
        string_val: "./nsfnet/50_nodes_route/tfrecords/train/results_synth50_9_AP_k_126.tfrecords"
        string_val: "./nsfnet/50_nodes_route/tfrecords/train/results_synth50_9_AP_k_128.tfrecords"
        string_val: "./nsfnet/50_nodes_route/tfrecords/train/results_synth50_9_AP_k_129.tfrecords"
        string_val: "./nsfnet/50_nodes_route/tfrecords/train/results_synth50_9_AP_k_12.tfrecords"
        string_val: "./nsfnet/50_nodes_route/tfrecords/train/results_synth50_9_AP_k_130.tfrecords"
        string_val: "./nsfnet/50_nodes_route/tfrecords/train/results_synth50_9_AP_k_131.tfrecords"
        string_val: "./nsfnet/50_nodes_route/tfrecords/train/results_synth50_9_AP_k_132.tfrecords"
        string_val: "./nsfnet/50_nodes_route/tfrecords/train/results_synth50_9_AP_k_133.tfrecords"
        string_val: "./nsfnet/50_nodes_route/tfrecords/train/results_synth50_9_AP_k_134.tfrecords"
        string_val: "./nsfnet/50_nodes_route/tfrecords/train/results_synth50_9_AP_k_135.tfrecords"
        string_val: "./nsfnet/50_nodes_route/tfrecords/train/results_synth50_9_AP_k_136.tfrecords"
        string_val: "./nsfnet/50_nodes_route/tfrecords/train/results_synth50_9_AP_k_137.tfrecords"
        string_val: "./nsfnet/50_nodes_route/tfrecords/train/results_synth50_9_AP_k_14.tfrecords"
        string_val: "./nsfnet/50_nodes_route/tfrecords/train/results_synth50_9_AP_k_16.tfrecords"
        string_val: "./nsfnet/50_nodes_route/tfrecords/train/results_synth50_9_AP_k_17.tfrecords"
        string_val: "./nsfnet/50_nodes_route/tfrecords/train/results_synth50_9_AP_k_18.tfrecords"
        string_val: "./nsfnet/50_nodes_route/tfrecords/train/results_synth50_9_AP_k_19.tfrecords"
        string_val: "./nsfnet/50_nodes_route/tfrecords/train/results_synth50_9_AP_k_1.tfrecords"
        string_val: "./nsfnet/50_nodes_route/tfrecords/train/results_synth50_9_AP_k_20.tfrecords"
        string_val: "./nsfnet/50_nodes_route/tfrecords/train/results_synth50_9_AP_k_22.tfrecords"
        string_val: "./nsfnet/50_nodes_route/tfrecords/train/results_synth50_9_AP_k_23.tfrecords"
        string_val: "./nsfnet/50_nodes_route/tfrecords/train/results_synth50_9_AP_k_27.tfrecords"
        string_val: "./nsfnet/50_nodes_route/tfrecords/train/results_synth50_9_AP_k_29.tfrecords"
        string_val: "./nsfnet/50_nodes_route/tfrecords/train/results_synth50_9_AP_k_2.tfrecords"
        string_val: "./nsfnet/50_nodes_route/tfrecords/train/results_synth50_9_AP_k_30.tfrecords"
        string_val: "./nsfnet/50_nodes_route/tfrecords/train/results_synth50_9_AP_k_31.tfrecords"
        string_val: "./nsfnet/50_nodes_route/tfrecords/train/results_synth50_9_AP_k_32.tfrecords"
        string_val: "./nsfnet/50_nodes_route/tfrecords/train/results_synth50_9_AP_k_33.tfrecords"
        string_val: "./nsfnet/50_nodes_route/tfrecords/train/results_synth50_9_AP_k_34.tfrecords"
        string_val: "./nsfnet/50_nodes_route/tfrecords/train/results_synth50_9_AP_k_35.tfrecords"
        string_val: "./nsfnet/50_nodes_route/tfrecords/train/results_synth50_9_AP_k_36.tfrecords"
        string_val: "./nsfnet/50_nodes_route/tfrecords/train/results_synth50_9_AP_k_38.tfrecords"
        string_val: "./nsfnet/50_nodes_route/tfrecords/train/results_synth50_9_AP_k_3.tfrecords"
        string_val: "./nsfnet/50_nodes_route/tfrecords/train/results_synth50_9_AP_k_40.tfrecords"
        string_val: "./nsfnet/50_nodes_route/tfrecords/train/results_synth50_9_AP_k_41.tfrecords"
        string_val: "./nsfnet/50_nodes_route/tfrecords/train/results_synth50_9_AP_k_42.tfrecords"
        string_val: "./nsfnet/50_nodes_route/tfrecords/train/results_synth50_9_AP_k_43.tfrecords"
        string_val: "./nsfnet/50_nodes_route/tfrecords/train/results_synth50_9_AP_k_44.tfrecords"
        string_val: "./nsfnet/50_nodes_route/tfrecords/train/results_synth50_9_AP_k_47.tfrecords"
        string_val: "./nsfnet/50_nodes_route/tfrecords/train/results_synth50_9_AP_k_49.tfrecords"
        string_val: "./nsfnet/50_nodes_route/tfrecords/train/results_synth50_9_AP_k_4.tfrecords"
        string_val: "./nsfnet/50_nodes_route/tfrecords/train/results_synth50_9_AP_k_50.tfrecords"
        string_val: "./nsfnet/50_nodes_route/tfrecords/train/results_synth50_9_AP_k_51.tfrecords"
        string_val: "./nsfnet/50_nodes_route/tfrecords/train/results_synth50_9_AP_k_52.tfrecords"
        string_val: "./nsfnet/50_nodes_route/tfrecords/train/results_synth50_9_AP_k_53.tfrecords"
        string_val: "./nsfnet/50_nodes_route/tfrecords/train/results_synth50_9_AP_k_54.tfrecords"
        string_val: "./nsfnet/50_nodes_route/tfrecords/train/results_synth50_9_AP_k_55.tfrecords"
        string_val: "./nsfnet/50_nodes_route/tfrecords/train/results_synth50_9_AP_k_56.tfrecords"
        string_val: "./nsfnet/50_nodes_route/tfrecords/train/results_synth50_9_AP_k_57.tfrecords"
        string_val: "./nsfnet/50_nodes_route/tfrecords/train/results_synth50_9_AP_k_58.tfrecords"
        string_val: "./nsfnet/50_nodes_route/tfrecords/train/results_synth50_9_AP_k_59.tfrecords"
        string_val: "./nsfnet/50_nodes_route/tfrecords/train/results_synth50_9_AP_k_5.tfrecords"
        string_val: "./nsfnet/50_nodes_route/tfrecords/train/results_synth50_9_AP_k_60.tfrecords"
        string_val: "./nsfnet/50_nodes_route/tfrecords/train/results_synth50_9_AP_k_63.tfrecords"
        string_val: "./nsfnet/50_nodes_route/tfrecords/train/results_synth50_9_AP_k_64.tfrecords"
        string_val: "./nsfnet/50_nodes_route/tfrecords/train/results_synth50_9_AP_k_65.tfrecords"
        string_val: "./nsfnet/50_nodes_route/tfrecords/train/results_synth50_9_AP_k_66.tfrecords"
        string_val: "./nsfnet/50_nodes_route/tfrecords/train/results_synth50_9_AP_k_68.tfrecords"
        string_val: "./nsfnet/50_nodes_route/tfrecords/train/results_synth50_9_AP_k_69.tfrecords"
        string_val: "./nsfnet/50_nodes_route/tfrecords/train/results_synth50_9_AP_k_6.tfrecords"
        string_val: "./nsfnet/50_nodes_route/tfrecords/train/results_synth50_9_AP_k_70.tfrecords"
        string_val: "./nsfnet/50_nodes_route/tfrecords/train/results_synth50_9_AP_k_73.tfrecords"
        string_val: "./nsfnet/50_nodes_route/tfrecords/train/results_synth50_9_AP_k_74.tfrecords"
        string_val: "./nsfnet/50_nodes_route/tfrecords/train/results_synth50_9_AP_k_75.tfrecords"
        string_val: "./nsfnet/50_nodes_route/tfrecords/train/results_synth50_9_AP_k_76.tfrecords"
        string_val: "./nsfnet/50_nodes_route/tfrecords/train/results_synth50_9_AP_k_77.tfrecords"
        string_val: "./nsfnet/50_nodes_route/tfrecords/train/results_synth50_9_AP_k_78.tfrecords"
        string_val: "./nsfnet/50_nodes_route/tfrecords/train/results_synth50_9_AP_k_79.tfrecords"
        string_val: "./nsfnet/50_nodes_route/tfrecords/train/results_synth50_9_AP_k_7.tfrecords"
        string_val: "./nsfnet/50_nodes_route/tfrecords/train/results_synth50_9_AP_k_80.tfrecords"
        string_val: "./nsfnet/50_nodes_route/tfrecords/train/results_synth50_9_AP_k_81.tfrecords"
        string_val: "./nsfnet/50_nodes_route/tfrecords/train/results_synth50_9_AP_k_82.tfrecords"
        string_val: "./nsfnet/50_nodes_route/tfrecords/train/results_synth50_9_AP_k_84.tfrecords"
        string_val: "./nsfnet/50_nodes_route/tfrecords/train/results_synth50_9_AP_k_85.tfrecords"
        string_val: "./nsfnet/50_nodes_route/tfrecords/train/results_synth50_9_AP_k_86.tfrecords"
        string_val: "./nsfnet/50_nodes_route/tfrecords/train/results_synth50_9_AP_k_87.tfrecords"
        string_val: "./nsfnet/50_nodes_route/tfrecords/train/results_synth50_9_AP_k_88.tfrecords"
        string_val: "./nsfnet/50_nodes_route/tfrecords/train/results_synth50_9_AP_k_8.tfrecords"
        string_val: "./nsfnet/50_nodes_route/tfrecords/train/results_synth50_9_AP_k_90.tfrecords"
        string_val: "./nsfnet/50_nodes_route/tfrecords/train/results_synth50_9_AP_k_91.tfrecords"
        string_val: "./nsfnet/50_nodes_route/tfrecords/train/results_synth50_9_AP_k_92.tfrecords"
        string_val: "./nsfnet/50_nodes_route/tfrecords/train/results_synth50_9_AP_k_93.tfrecords"
        string_val: "./nsfnet/50_nodes_route/tfrecords/train/results_synth50_9_AP_k_94.tfrecords"
        string_val: "./nsfnet/50_nodes_route/tfrecords/train/results_synth50_9_AP_k_95.tfrecords"
        string_val: "./nsfnet/50_nodes_route/tfrecords/train/results_synth50_9_AP_k_96.tfrecords"
        string_val: "./nsfnet/50_nodes_route/tfrecords/train/results_synth50_9_AP_k_97.tfrecords"
        string_val: "./nsfnet/50_nodes_route/tfrecords/train/results_synth50_9_AP_k_98.tfrecords"
        string_val: "./nsfnet/50_nodes_route/tfrecords/train/results_synth50_9_AP_k_99.tfrecords"
        string_val: "./nsfnet/50_nodes_route/tfrecords/train/results_synth50_9_AP_k_9.tfrecords"
      }
    }
  }
}
node {
  name: "buffer_size"
  op: "Const"
  device: "/device:CPU:0"
  attr {
    key: "_output_shapes"
    value {
      list {
        shape {
        }
      }
    }
  }
  attr {
    key: "dtype"
    value {
      type: DT_INT64
    }
  }
  attr {
    key: "value"
    value {
      tensor {
        dtype: DT_INT64
        tensor_shape {
        }
        int64_val: 331
      }
    }
  }
}
node {
  name: "seed"
  op: "Const"
  device: "/device:CPU:0"
  attr {
    key: "_output_shapes"
    value {
      list {
        shape {
        }
      }
    }
  }
  attr {
    key: "dtype"
    value {
      type: DT_INT64
    }
  }
  attr {
    key: "value"
    value {
      tensor {
        dtype: DT_INT64
        tensor_shape {
        }
        int64_val: 0
      }
    }
  }
}
node {
  name: "seed2"
  op: "Const"
  device: "/device:CPU:0"
  attr {
    key: "_output_shapes"
    value {
      list {
        shape {
        }
      }
    }
  }
  attr {
    key: "dtype"
    value {
      type: DT_INT64
    }
  }
  attr {
    key: "value"
    value {
      tensor {
        dtype: DT_INT64
        tensor_shape {
        }
        int64_val: 0
      }
    }
  }
}
node {
  name: "cycle_length"
  op: "Const"
  device: "/device:CPU:0"
  attr {
    key: "_output_shapes"
    value {
      list {
        shape {
        }
      }
    }
  }
  attr {
    key: "dtype"
    value {
      type: DT_INT64
    }
  }
  attr {
    key: "value"
    value {
      tensor {
        dtype: DT_INT64
        tensor_shape {
        }
        int64_val: 4
      }
    }
  }
}
node {
  name: "block_length"
  op: "Const"
  device: "/device:CPU:0"
  attr {
    key: "_output_shapes"
    value {
      list {
        shape {
        }
      }
    }
  }
  attr {
    key: "dtype"
    value {
      type: DT_INT64
    }
  }
  attr {
    key: "value"
    value {
      tensor {
        dtype: DT_INT64
        tensor_shape {
        }
        int64_val: 1
      }
    }
  }
}
node {
  name: "sloppy"
  op: "Const"
  device: "/device:CPU:0"
  attr {
    key: "_output_shapes"
    value {
      list {
        shape {
        }
      }
    }
  }
  attr {
    key: "dtype"
    value {
      type: DT_BOOL
    }
  }
  attr {
    key: "value"
    value {
      tensor {
        dtype: DT_BOOL
        tensor_shape {
        }
        bool_val: false
      }
    }
  }
}
node {
  name: "buffer_output_elements"
  op: "Const"
  device: "/device:CPU:0"
  attr {
    key: "_output_shapes"
    value {
      list {
        shape {
        }
      }
    }
  }
  attr {
    key: "dtype"
    value {
      type: DT_INT64
    }
  }
  attr {
    key: "value"
    value {
      tensor {
        dtype: DT_INT64
        tensor_shape {
        }
        int64_val: 2
      }
    }
  }
}
node {
  name: "prefetch_input_elements"
  op: "Const"
  device: "/device:CPU:0"
  attr {
    key: "_output_shapes"
    value {
      list {
        shape {
        }
      }
    }
  }
  attr {
    key: "dtype"
    value {
      type: DT_INT64
    }
  }
  attr {
    key: "value"
    value {
      tensor {
        dtype: DT_INT64
        tensor_shape {
        }
        int64_val: 8
      }
    }
  }
}
node {
  name: "buffer_size_1"
  op: "Const"
  device: "/device:CPU:0"
  attr {
    key: "_output_shapes"
    value {
      list {
        shape {
        }
      }
    }
  }
  attr {
    key: "dtype"
    value {
      type: DT_INT64
    }
  }
  attr {
    key: "value"
    value {
      tensor {
        dtype: DT_INT64
        tensor_shape {
        }
        int64_val: 10000
      }
    }
  }
}
node {
  name: "count"
  op: "Const"
  device: "/device:CPU:0"
  attr {
    key: "_output_shapes"
    value {
      list {
        shape {
        }
      }
    }
  }
  attr {
    key: "dtype"
    value {
      type: DT_INT64
    }
  }
  attr {
    key: "value"
    value {
      tensor {
        dtype: DT_INT64
        tensor_shape {
        }
        int64_val: -1
      }
    }
  }
}
node {
  name: "seed_1"
  op: "Const"
  device: "/device:CPU:0"
  attr {
    key: "_output_shapes"
    value {
      list {
        shape {
        }
      }
    }
  }
  attr {
    key: "dtype"
    value {
      type: DT_INT64
    }
  }
  attr {
    key: "value"
    value {
      tensor {
        dtype: DT_INT64
        tensor_shape {
        }
        int64_val: 0
      }
    }
  }
}
node {
  name: "seed2_1"
  op: "Const"
  device: "/device:CPU:0"
  attr {
    key: "_output_shapes"
    value {
      list {
        shape {
        }
      }
    }
  }
  attr {
    key: "dtype"
    value {
      type: DT_INT64
    }
  }
  attr {
    key: "value"
    value {
      tensor {
        dtype: DT_INT64
        tensor_shape {
        }
        int64_val: 0
      }
    }
  }
}
node {
  name: "num_parallel_calls"
  op: "Const"
  device: "/device:CPU:0"
  attr {
    key: "_output_shapes"
    value {
      list {
        shape {
        }
      }
    }
  }
  attr {
    key: "dtype"
    value {
      type: DT_INT32
    }
  }
  attr {
    key: "value"
    value {
      tensor {
        dtype: DT_INT32
        tensor_shape {
        }
        int_val: 2
      }
    }
  }
}
node {
  name: "batch_size"
  op: "Const"
  device: "/device:CPU:0"
  attr {
    key: "_output_shapes"
    value {
      list {
        shape {
        }
      }
    }
  }
  attr {
    key: "dtype"
    value {
      type: DT_INT64
    }
  }
  attr {
    key: "value"
    value {
      tensor {
        dtype: DT_INT64
        tensor_shape {
        }
        int64_val: 32
      }
    }
  }
}
node {
  name: "Const"
  op: "Const"
  device: "/device:CPU:0"
  attr {
    key: "_output_shapes"
    value {
      list {
        shape {
          dim {
            size: 1
          }
        }
      }
    }
  }
  attr {
    key: "dtype"
    value {
      type: DT_INT64
    }
  }
  attr {
    key: "value"
    value {
      tensor {
        dtype: DT_INT64
        tensor_shape {
          dim {
            size: 1
          }
        }
        int64_val: -1
      }
    }
  }
}
node {
  name: "Const_1"
  op: "Const"
  device: "/device:CPU:0"
  attr {
    key: "_output_shapes"
    value {
      list {
        shape {
          dim {
          }
        }
      }
    }
  }
  attr {
    key: "dtype"
    value {
      type: DT_INT64
    }
  }
  attr {
    key: "value"
    value {
      tensor {
        dtype: DT_INT64
        tensor_shape {
          dim {
          }
        }
      }
    }
  }
}
node {
  name: "Const_2"
  op: "Const"
  device: "/device:CPU:0"
  attr {
    key: "_output_shapes"
    value {
      list {
        shape {
          dim {
          }
        }
      }
    }
  }
  attr {
    key: "dtype"
    value {
      type: DT_INT64
    }
  }
  attr {
    key: "value"
    value {
      tensor {
        dtype: DT_INT64
        tensor_shape {
          dim {
          }
        }
      }
    }
  }
}
node {
  name: "Const_3"
  op: "Const"
  device: "/device:CPU:0"
  attr {
    key: "_output_shapes"
    value {
      list {
        shape {
          dim {
          }
        }
      }
    }
  }
  attr {
    key: "dtype"
    value {
      type: DT_INT64
    }
  }
  attr {
    key: "value"
    value {
      tensor {
        dtype: DT_INT64
        tensor_shape {
          dim {
          }
        }
      }
    }
  }
}
node {
  name: "Const_4"
  op: "Const"
  device: "/device:CPU:0"
  attr {
    key: "_output_shapes"
    value {
      list {
        shape {
          dim {
            size: 1
          }
        }
      }
    }
  }
  attr {
    key: "dtype"
    value {
      type: DT_INT64
    }
  }
  attr {
    key: "value"
    value {
      tensor {
        dtype: DT_INT64
        tensor_shape {
          dim {
            size: 1
          }
        }
        int64_val: -1
      }
    }
  }
}
node {
  name: "Const_5"
  op: "Const"
  device: "/device:CPU:0"
  attr {
    key: "_output_shapes"
    value {
      list {
        shape {
          dim {
            size: 1
          }
        }
      }
    }
  }
  attr {
    key: "dtype"
    value {
      type: DT_INT64
    }
  }
  attr {
    key: "value"
    value {
      tensor {
        dtype: DT_INT64
        tensor_shape {
          dim {
            size: 1
          }
        }
        int64_val: -1
      }
    }
  }
}
node {
  name: "Const_6"
  op: "Const"
  device: "/device:CPU:0"
  attr {
    key: "_output_shapes"
    value {
      list {
        shape {
          dim {
            size: 1
          }
        }
      }
    }
  }
  attr {
    key: "dtype"
    value {
      type: DT_INT64
    }
  }
  attr {
    key: "value"
    value {
      tensor {
        dtype: DT_INT64
        tensor_shape {
          dim {
            size: 1
          }
        }
        int64_val: 2450
      }
    }
  }
}
node {
  name: "Const_7"
  op: "Const"
  device: "/device:CPU:0"
  attr {
    key: "_output_shapes"
    value {
      list {
        shape {
          dim {
            size: 1
          }
        }
      }
    }
  }
  attr {
    key: "dtype"
    value {
      type: DT_INT64
    }
  }
  attr {
    key: "value"
    value {
      tensor {
        dtype: DT_INT64
        tensor_shape {
          dim {
            size: 1
          }
        }
        int64_val: 2450
      }
    }
  }
}
node {
  name: "padding_value"
  op: "Const"
  device: "/device:CPU:0"
  attr {
    key: "_output_shapes"
    value {
      list {
        shape {
        }
      }
    }
  }
  attr {
    key: "dtype"
    value {
      type: DT_INT64
    }
  }
  attr {
    key: "value"
    value {
      tensor {
        dtype: DT_INT64
        tensor_shape {
        }
        int64_val: 0
      }
    }
  }
}
node {
  name: "padding_value_1"
  op: "Const"
  device: "/device:CPU:0"
  attr {
    key: "_output_shapes"
    value {
      list {
        shape {
        }
      }
    }
  }
  attr {
    key: "dtype"
    value {
      type: DT_INT64
    }
  }
  attr {
    key: "value"
    value {
      tensor {
        dtype: DT_INT64
        tensor_shape {
        }
        int64_val: 0
      }
    }
  }
}
node {
  name: "padding_value_2"
  op: "Const"
  device: "/device:CPU:0"
  attr {
    key: "_output_shapes"
    value {
      list {
        shape {
        }
      }
    }
  }
  attr {
    key: "dtype"
    value {
      type: DT_INT64
    }
  }
  attr {
    key: "value"
    value {
      tensor {
        dtype: DT_INT64
        tensor_shape {
        }
        int64_val: 0
      }
    }
  }
}
node {
  name: "padding_value_3"
  op: "Const"
  device: "/device:CPU:0"
  attr {
    key: "_output_shapes"
    value {
      list {
        shape {
        }
      }
    }
  }
  attr {
    key: "dtype"
    value {
      type: DT_INT64
    }
  }
  attr {
    key: "value"
    value {
      tensor {
        dtype: DT_INT64
        tensor_shape {
        }
        int64_val: 0
      }
    }
  }
}
node {
  name: "padding_value_4"
  op: "Const"
  device: "/device:CPU:0"
  attr {
    key: "_output_shapes"
    value {
      list {
        shape {
        }
      }
    }
  }
  attr {
    key: "dtype"
    value {
      type: DT_INT64
    }
  }
  attr {
    key: "value"
    value {
      tensor {
        dtype: DT_INT64
        tensor_shape {
        }
        int64_val: 0
      }
    }
  }
}
node {
  name: "padding_value_5"
  op: "Const"
  device: "/device:CPU:0"
  attr {
    key: "_output_shapes"
    value {
      list {
        shape {
        }
      }
    }
  }
  attr {
    key: "dtype"
    value {
      type: DT_INT64
    }
  }
  attr {
    key: "value"
    value {
      tensor {
        dtype: DT_INT64
        tensor_shape {
        }
        int64_val: 0
      }
    }
  }
}
node {
  name: "padding_value_6"
  op: "Const"
  device: "/device:CPU:0"
  attr {
    key: "_output_shapes"
    value {
      list {
        shape {
        }
      }
    }
  }
  attr {
    key: "dtype"
    value {
      type: DT_FLOAT
    }
  }
  attr {
    key: "value"
    value {
      tensor {
        dtype: DT_FLOAT
        tensor_shape {
        }
        float_val: 0.0
      }
    }
  }
}
node {
  name: "padding_value_7"
  op: "Const"
  device: "/device:CPU:0"
  attr {
    key: "_output_shapes"
    value {
      list {
        shape {
        }
      }
    }
  }
  attr {
    key: "dtype"
    value {
      type: DT_FLOAT
    }
  }
  attr {
    key: "value"
    value {
      tensor {
        dtype: DT_FLOAT
        tensor_shape {
        }
        float_val: 0.0
      }
    }
  }
}
node {
  name: "drop_remainder"
  op: "Const"
  device: "/device:CPU:0"
  attr {
    key: "_output_shapes"
    value {
      list {
        shape {
        }
      }
    }
  }
  attr {
    key: "dtype"
    value {
      type: DT_BOOL
    }
  }
  attr {
    key: "value"
    value {
      tensor {
        dtype: DT_BOOL
        tensor_shape {
        }
        bool_val: false
      }
    }
  }
}
node {
  name: "buffer_size_2"
  op: "Const"
  device: "/device:CPU:0"
  attr {
    key: "_output_shapes"
    value {
      list {
        shape {
        }
      }
    }
  }
  attr {
    key: "dtype"
    value {
      type: DT_INT64
    }
  }
  attr {
    key: "value"
    value {
      tensor {
        dtype: DT_INT64
        tensor_shape {
        }
        int64_val: 1
      }
    }
  }
}
node {
  name: "OneShotIterator"
  op: "OneShotIterator"
  device: "/device:CPU:0"
  attr {
    key: "_output_shapes"
    value {
      list {
        shape {
        }
      }
    }
  }
  attr {
    key: "container"
    value {
      s: ""
    }
  }
  attr {
    key: "dataset_factory"
    value {
      func {
        name: "_make_dataset_2nBXRk7Lda0"
      }
    }
  }
  attr {
    key: "output_shapes"
    value {
      list {
        shape {
          dim {
            size: -1
          }
          dim {
            size: -1
          }
        }
        shape {
          dim {
            size: -1
          }
        }
        shape {
          dim {
            size: -1
          }
        }
        shape {
          dim {
            size: -1
          }
        }
        shape {
          dim {
            size: -1
          }
          dim {
            size: -1
          }
        }
        shape {
          dim {
            size: -1
          }
          dim {
            size: -1
          }
        }
        shape {
          dim {
            size: -1
          }
          dim {
            size: 2450
          }
        }
        shape {
          dim {
            size: -1
          }
          dim {
            size: 2450
          }
        }
      }
    }
  }
  attr {
    key: "output_types"
    value {
      list {
        type: DT_INT64
        type: DT_INT64
        type: DT_INT64
        type: DT_INT64
        type: DT_INT64
        type: DT_INT64
        type: DT_FLOAT
        type: DT_FLOAT
      }
    }
  }
  attr {
    key: "shared_name"
    value {
      s: ""
    }
  }
}
node {
  name: "IteratorToStringHandle"
  op: "IteratorToStringHandle"
  input: "OneShotIterator"
  device: "/device:CPU:0"
  attr {
    key: "_output_shapes"
    value {
      list {
        shape {
        }
      }
    }
  }
}
node {
  name: "IteratorGetNext"
  op: "IteratorGetNext"
  input: "OneShotIterator"
  device: "/device:CPU:0"
  attr {
    key: "_output_shapes"
    value {
      list {
        shape {
          dim {
            size: -1
          }
          dim {
            size: -1
          }
        }
        shape {
          dim {
            size: -1
          }
        }
        shape {
          dim {
            size: -1
          }
        }
        shape {
          dim {
            size: -1
          }
        }
        shape {
          dim {
            size: -1
          }
          dim {
            size: -1
          }
        }
        shape {
          dim {
            size: -1
          }
          dim {
            size: -1
          }
        }
        shape {
          dim {
            size: -1
          }
          dim {
            size: 2450
          }
        }
        shape {
          dim {
            size: -1
          }
          dim {
            size: 2450
          }
        }
      }
    }
  }
  attr {
    key: "output_shapes"
    value {
      list {
        shape {
          dim {
            size: -1
          }
          dim {
            size: -1
          }
        }
        shape {
          dim {
            size: -1
          }
        }
        shape {
          dim {
            size: -1
          }
        }
        shape {
          dim {
            size: -1
          }
        }
        shape {
          dim {
            size: -1
          }
          dim {
            size: -1
          }
        }
        shape {
          dim {
            size: -1
          }
          dim {
            size: -1
          }
        }
        shape {
          dim {
            size: -1
          }
          dim {
            size: 2450
          }
        }
        shape {
          dim {
            size: -1
          }
          dim {
            size: 2450
          }
        }
      }
    }
  }
  attr {
    key: "output_types"
    value {
      list {
        type: DT_INT64
        type: DT_INT64
        type: DT_INT64
        type: DT_INT64
        type: DT_INT64
        type: DT_INT64
        type: DT_FLOAT
        type: DT_FLOAT
      }
    }
  }
}
node {
  name: "gru_cell/gates/kernel/Initializer/random_uniform/shape"
  op: "Const"
  attr {
    key: "_class"
    value {
      list {
        s: "loc:@gru_cell/gates/kernel"
      }
    }
  }
  attr {
    key: "_output_shapes"
    value {
      list {
        shape {
          dim {
            size: 2
          }
        }
      }
    }
  }
  attr {
    key: "dtype"
    value {
      type: DT_INT32
    }
  }
  attr {
    key: "value"
    value {
      tensor {
        dtype: DT_INT32
        tensor_shape {
          dim {
            size: 2
          }
        }
        tensor_content: "@\000\000\000@\000\000\000"
      }
    }
  }
}
node {
  name: "gru_cell/gates/kernel/Initializer/random_uniform/min"
  op: "Const"
  attr {
    key: "_class"
    value {
      list {
        s: "loc:@gru_cell/gates/kernel"
      }
    }
  }
  attr {
    key: "_output_shapes"
    value {
      list {
        shape {
        }
      }
    }
  }
  attr {
    key: "dtype"
    value {
      type: DT_FLOAT
    }
  }
  attr {
    key: "value"
    value {
      tensor {
        dtype: DT_FLOAT
        tensor_shape {
        }
        float_val: -0.21650634706020355
      }
    }
  }
}
node {
  name: "gru_cell/gates/kernel/Initializer/random_uniform/max"
  op: "Const"
  attr {
    key: "_class"
    value {
      list {
        s: "loc:@gru_cell/gates/kernel"
      }
    }
  }
  attr {
    key: "_output_shapes"
    value {
      list {
        shape {
        }
      }
    }
  }
  attr {
    key: "dtype"
    value {
      type: DT_FLOAT
    }
  }
  attr {
    key: "value"
    value {
      tensor {
        dtype: DT_FLOAT
        tensor_shape {
        }
        float_val: 0.21650634706020355
      }
    }
  }
}
node {
  name: "gru_cell/gates/kernel/Initializer/random_uniform/RandomUniform"
  op: "RandomUniform"
  input: "gru_cell/gates/kernel/Initializer/random_uniform/shape"
  attr {
    key: "T"
    value {
      type: DT_INT32
    }
  }
  attr {
    key: "_class"
    value {
      list {
        s: "loc:@gru_cell/gates/kernel"
      }
    }
  }
  attr {
    key: "_output_shapes"
    value {
      list {
        shape {
          dim {
            size: 64
          }
          dim {
            size: 64
          }
        }
      }
    }
  }
  attr {
    key: "dtype"
    value {
      type: DT_FLOAT
    }
  }
  attr {
    key: "seed"
    value {
      i: 0
    }
  }
  attr {
    key: "seed2"
    value {
      i: 0
    }
  }
}
node {
  name: "gru_cell/gates/kernel/Initializer/random_uniform/sub"
  op: "Sub"
  input: "gru_cell/gates/kernel/Initializer/random_uniform/max"
  input: "gru_cell/gates/kernel/Initializer/random_uniform/min"
  attr {
    key: "T"
    value {
      type: DT_FLOAT
    }
  }
  attr {
    key: "_class"
    value {
      list {
        s: "loc:@gru_cell/gates/kernel"
      }
    }
  }
  attr {
    key: "_output_shapes"
    value {
      list {
        shape {
        }
      }
    }
  }
}
node {
  name: "gru_cell/gates/kernel/Initializer/random_uniform/mul"
  op: "Mul"
  input: "gru_cell/gates/kernel/Initializer/random_uniform/RandomUniform"
  input: "gru_cell/gates/kernel/Initializer/random_uniform/sub"
  attr {
    key: "T"
    value {
      type: DT_FLOAT
    }
  }
  attr {
    key: "_class"
    value {
      list {
        s: "loc:@gru_cell/gates/kernel"
      }
    }
  }
  attr {
    key: "_output_shapes"
    value {
      list {
        shape {
          dim {
            size: 64
          }
          dim {
            size: 64
          }
        }
      }
    }
  }
}
node {
  name: "gru_cell/gates/kernel/Initializer/random_uniform"
  op: "Add"
  input: "gru_cell/gates/kernel/Initializer/random_uniform/mul"
  input: "gru_cell/gates/kernel/Initializer/random_uniform/min"
  attr {
    key: "T"
    value {
      type: DT_FLOAT
    }
  }
  attr {
    key: "_class"
    value {
      list {
        s: "loc:@gru_cell/gates/kernel"
      }
    }
  }
  attr {
    key: "_output_shapes"
    value {
      list {
        shape {
          dim {
            size: 64
          }
          dim {
            size: 64
          }
        }
      }
    }
  }
}
node {
  name: "gru_cell/gates/kernel"
  op: "VarHandleOp"
  attr {
    key: "_class"
    value {
      list {
        s: "loc:@gru_cell/gates/kernel"
      }
    }
  }
  attr {
    key: "_output_shapes"
    value {
      list {
        shape {
        }
      }
    }
  }
  attr {
    key: "container"
    value {
      s: ""
    }
  }
  attr {
    key: "dtype"
    value {
      type: DT_FLOAT
    }
  }
  attr {
    key: "shape"
    value {
      shape {
        dim {
          size: 64
        }
        dim {
          size: 64
        }
      }
    }
  }
  attr {
    key: "shared_name"
    value {
      s: "gru_cell/gates/kernel"
    }
  }
}
node {
  name: "gru_cell/gates/kernel/IsInitialized/VarIsInitializedOp"
  op: "VarIsInitializedOp"
  input: "gru_cell/gates/kernel"
  attr {
    key: "_output_shapes"
    value {
      list {
        shape {
        }
      }
    }
  }
}
node {
  name: "gru_cell/gates/kernel/Assign"
  op: "AssignVariableOp"
  input: "gru_cell/gates/kernel"
  input: "gru_cell/gates/kernel/Initializer/random_uniform"
  attr {
    key: "_class"
    value {
      list {
        s: "loc:@gru_cell/gates/kernel"
      }
    }
  }
  attr {
    key: "dtype"
    value {
      type: DT_FLOAT
    }
  }
}
node {
  name: "gru_cell/gates/kernel/Read/ReadVariableOp"
  op: "ReadVariableOp"
  input: "gru_cell/gates/kernel"
  attr {
    key: "_class"
    value {
      list {
        s: "loc:@gru_cell/gates/kernel"
      }
    }
  }
  attr {
    key: "_output_shapes"
    value {
      list {
        shape {
          dim {
            size: 64
          }
          dim {
            size: 64
          }
        }
      }
    }
  }
  attr {
    key: "dtype"
    value {
      type: DT_FLOAT
    }
  }
}
node {
  name: "gru_cell/gates/bias/Initializer/Const"
  op: "Const"
  attr {
    key: "_class"
    value {
      list {
        s: "loc:@gru_cell/gates/bias"
      }
    }
  }
  attr {
    key: "_output_shapes"
    value {
      list {
        shape {
          dim {
            size: 64
          }
        }
      }
    }
  }
  attr {
    key: "dtype"
    value {
      type: DT_FLOAT
    }
  }
  attr {
    key: "value"
    value {
      tensor {
        dtype: DT_FLOAT
        tensor_shape {
          dim {
            size: 64
          }
        }
        float_val: 1.0
      }
    }
  }
}
node {
  name: "gru_cell/gates/bias"
  op: "VarHandleOp"
  attr {
    key: "_class"
    value {
      list {
        s: "loc:@gru_cell/gates/bias"
      }
    }
  }
  attr {
    key: "_output_shapes"
    value {
      list {
        shape {
        }
      }
    }
  }
  attr {
    key: "container"
    value {
      s: ""
    }
  }
  attr {
    key: "dtype"
    value {
      type: DT_FLOAT
    }
  }
  attr {
    key: "shape"
    value {
      shape {
        dim {
          size: 64
        }
      }
    }
  }
  attr {
    key: "shared_name"
    value {
      s: "gru_cell/gates/bias"
    }
  }
}
node {
  name: "gru_cell/gates/bias/IsInitialized/VarIsInitializedOp"
  op: "VarIsInitializedOp"
  input: "gru_cell/gates/bias"
  attr {
    key: "_output_shapes"
    value {
      list {
        shape {
        }
      }
    }
  }
}
node {
  name: "gru_cell/gates/bias/Assign"
  op: "AssignVariableOp"
  input: "gru_cell/gates/bias"
  input: "gru_cell/gates/bias/Initializer/Const"
  attr {
    key: "_class"
    value {
      list {
        s: "loc:@gru_cell/gates/bias"
      }
    }
  }
  attr {
    key: "dtype"
    value {
      type: DT_FLOAT
    }
  }
}
node {
  name: "gru_cell/gates/bias/Read/ReadVariableOp"
  op: "ReadVariableOp"
  input: "gru_cell/gates/bias"
  attr {
    key: "_class"
    value {
      list {
        s: "loc:@gru_cell/gates/bias"
      }
    }
  }
  attr {
    key: "_output_shapes"
    value {
      list {
        shape {
          dim {
            size: 64
          }
        }
      }
    }
  }
  attr {
    key: "dtype"
    value {
      type: DT_FLOAT
    }
  }
}
node {
  name: "gru_cell/candidate/kernel/Initializer/random_uniform/shape"
  op: "Const"
  attr {
    key: "_class"
    value {
      list {
        s: "loc:@gru_cell/candidate/kernel"
      }
    }
  }
  attr {
    key: "_output_shapes"
    value {
      list {
        shape {
          dim {
            size: 2
          }
        }
      }
    }
  }
  attr {
    key: "dtype"
    value {
      type: DT_INT32
    }
  }
  attr {
    key: "value"
    value {
      tensor {
        dtype: DT_INT32
        tensor_shape {
          dim {
            size: 2
          }
        }
        tensor_content: "@\000\000\000 \000\000\000"
      }
    }
  }
}
node {
  name: "gru_cell/candidate/kernel/Initializer/random_uniform/min"
  op: "Const"
  attr {
    key: "_class"
    value {
      list {
        s: "loc:@gru_cell/candidate/kernel"
      }
    }
  }
  attr {
    key: "_output_shapes"
    value {
      list {
        shape {
        }
      }
    }
  }
  attr {
    key: "dtype"
    value {
      type: DT_FLOAT
    }
  }
  attr {
    key: "value"
    value {
      tensor {
        dtype: DT_FLOAT
        tensor_shape {
        }
        float_val: -0.25
      }
    }
  }
}
node {
  name: "gru_cell/candidate/kernel/Initializer/random_uniform/max"
  op: "Const"
  attr {
    key: "_class"
    value {
      list {
        s: "loc:@gru_cell/candidate/kernel"
      }
    }
  }
  attr {
    key: "_output_shapes"
    value {
      list {
        shape {
        }
      }
    }
  }
  attr {
    key: "dtype"
    value {
      type: DT_FLOAT
    }
  }
  attr {
    key: "value"
    value {
      tensor {
        dtype: DT_FLOAT
        tensor_shape {
        }
        float_val: 0.25
      }
    }
  }
}
node {
  name: "gru_cell/candidate/kernel/Initializer/random_uniform/RandomUniform"
  op: "RandomUniform"
  input: "gru_cell/candidate/kernel/Initializer/random_uniform/shape"
  attr {
    key: "T"
    value {
      type: DT_INT32
    }
  }
  attr {
    key: "_class"
    value {
      list {
        s: "loc:@gru_cell/candidate/kernel"
      }
    }
  }
  attr {
    key: "_output_shapes"
    value {
      list {
        shape {
          dim {
            size: 64
          }
          dim {
            size: 32
          }
        }
      }
    }
  }
  attr {
    key: "dtype"
    value {
      type: DT_FLOAT
    }
  }
  attr {
    key: "seed"
    value {
      i: 0
    }
  }
  attr {
    key: "seed2"
    value {
      i: 0
    }
  }
}
node {
  name: "gru_cell/candidate/kernel/Initializer/random_uniform/sub"
  op: "Sub"
  input: "gru_cell/candidate/kernel/Initializer/random_uniform/max"
  input: "gru_cell/candidate/kernel/Initializer/random_uniform/min"
  attr {
    key: "T"
    value {
      type: DT_FLOAT
    }
  }
  attr {
    key: "_class"
    value {
      list {
        s: "loc:@gru_cell/candidate/kernel"
      }
    }
  }
  attr {
    key: "_output_shapes"
    value {
      list {
        shape {
        }
      }
    }
  }
}
node {
  name: "gru_cell/candidate/kernel/Initializer/random_uniform/mul"
  op: "Mul"
  input: "gru_cell/candidate/kernel/Initializer/random_uniform/RandomUniform"
  input: "gru_cell/candidate/kernel/Initializer/random_uniform/sub"
  attr {
    key: "T"
    value {
      type: DT_FLOAT
    }
  }
  attr {
    key: "_class"
    value {
      list {
        s: "loc:@gru_cell/candidate/kernel"
      }
    }
  }
  attr {
    key: "_output_shapes"
    value {
      list {
        shape {
          dim {
            size: 64
          }
          dim {
            size: 32
          }
        }
      }
    }
  }
}
node {
  name: "gru_cell/candidate/kernel/Initializer/random_uniform"
  op: "Add"
  input: "gru_cell/candidate/kernel/Initializer/random_uniform/mul"
  input: "gru_cell/candidate/kernel/Initializer/random_uniform/min"
  attr {
    key: "T"
    value {
      type: DT_FLOAT
    }
  }
  attr {
    key: "_class"
    value {
      list {
        s: "loc:@gru_cell/candidate/kernel"
      }
    }
  }
  attr {
    key: "_output_shapes"
    value {
      list {
        shape {
          dim {
            size: 64
          }
          dim {
            size: 32
          }
        }
      }
    }
  }
}
node {
  name: "gru_cell/candidate/kernel"
  op: "VarHandleOp"
  attr {
    key: "_class"
    value {
      list {
        s: "loc:@gru_cell/candidate/kernel"
      }
    }
  }
  attr {
    key: "_output_shapes"
    value {
      list {
        shape {
        }
      }
    }
  }
  attr {
    key: "container"
    value {
      s: ""
    }
  }
  attr {
    key: "dtype"
    value {
      type: DT_FLOAT
    }
  }
  attr {
    key: "shape"
    value {
      shape {
        dim {
          size: 64
        }
        dim {
          size: 32
        }
      }
    }
  }
  attr {
    key: "shared_name"
    value {
      s: "gru_cell/candidate/kernel"
    }
  }
}
node {
  name: "gru_cell/candidate/kernel/IsInitialized/VarIsInitializedOp"
  op: "VarIsInitializedOp"
  input: "gru_cell/candidate/kernel"
  attr {
    key: "_output_shapes"
    value {
      list {
        shape {
        }
      }
    }
  }
}
node {
  name: "gru_cell/candidate/kernel/Assign"
  op: "AssignVariableOp"
  input: "gru_cell/candidate/kernel"
  input: "gru_cell/candidate/kernel/Initializer/random_uniform"
  attr {
    key: "_class"
    value {
      list {
        s: "loc:@gru_cell/candidate/kernel"
      }
    }
  }
  attr {
    key: "dtype"
    value {
      type: DT_FLOAT
    }
  }
}
node {
  name: "gru_cell/candidate/kernel/Read/ReadVariableOp"
  op: "ReadVariableOp"
  input: "gru_cell/candidate/kernel"
  attr {
    key: "_class"
    value {
      list {
        s: "loc:@gru_cell/candidate/kernel"
      }
    }
  }
  attr {
    key: "_output_shapes"
    value {
      list {
        shape {
          dim {
            size: 64
          }
          dim {
            size: 32
          }
        }
      }
    }
  }
  attr {
    key: "dtype"
    value {
      type: DT_FLOAT
    }
  }
}
node {
  name: "gru_cell/candidate/bias/Initializer/zeros"
  op: "Const"
  attr {
    key: "_class"
    value {
      list {
        s: "loc:@gru_cell/candidate/bias"
      }
    }
  }
  attr {
    key: "_output_shapes"
    value {
      list {
        shape {
          dim {
            size: 32
          }
        }
      }
    }
  }
  attr {
    key: "dtype"
    value {
      type: DT_FLOAT
    }
  }
  attr {
    key: "value"
    value {
      tensor {
        dtype: DT_FLOAT
        tensor_shape {
          dim {
            size: 32
          }
        }
        float_val: 0.0
      }
    }
  }
}
node {
  name: "gru_cell/candidate/bias"
  op: "VarHandleOp"
  attr {
    key: "_class"
    value {
      list {
        s: "loc:@gru_cell/candidate/bias"
      }
    }
  }
  attr {
    key: "_output_shapes"
    value {
      list {
        shape {
        }
      }
    }
  }
  attr {
    key: "container"
    value {
      s: ""
    }
  }
  attr {
    key: "dtype"
    value {
      type: DT_FLOAT
    }
  }
  attr {
    key: "shape"
    value {
      shape {
        dim {
          size: 32
        }
      }
    }
  }
  attr {
    key: "shared_name"
    value {
      s: "gru_cell/candidate/bias"
    }
  }
}
node {
  name: "gru_cell/candidate/bias/IsInitialized/VarIsInitializedOp"
  op: "VarIsInitializedOp"
  input: "gru_cell/candidate/bias"
  attr {
    key: "_output_shapes"
    value {
      list {
        shape {
        }
      }
    }
  }
}
node {
  name: "gru_cell/candidate/bias/Assign"
  op: "AssignVariableOp"
  input: "gru_cell/candidate/bias"
  input: "gru_cell/candidate/bias/Initializer/zeros"
  attr {
    key: "_class"
    value {
      list {
        s: "loc:@gru_cell/candidate/bias"
      }
    }
  }
  attr {
    key: "dtype"
    value {
      type: DT_FLOAT
    }
  }
}
node {
  name: "gru_cell/candidate/bias/Read/ReadVariableOp"
  op: "ReadVariableOp"
  input: "gru_cell/candidate/bias"
  attr {
    key: "_class"
    value {
      list {
        s: "loc:@gru_cell/candidate/bias"
      }
    }
  }
  attr {
    key: "_output_shapes"
    value {
      list {
        shape {
          dim {
            size: 32
          }
        }
      }
    }
  }
  attr {
    key: "dtype"
    value {
      type: DT_FLOAT
    }
  }
}
node {
  name: "gru_cell_1/gates/kernel/Initializer/random_uniform/shape"
  op: "Const"
  attr {
    key: "_class"
    value {
      list {
        s: "loc:@gru_cell_1/gates/kernel"
      }
    }
  }
  attr {
    key: "_output_shapes"
    value {
      list {
        shape {
          dim {
            size: 2
          }
        }
      }
    }
  }
  attr {
    key: "dtype"
    value {
      type: DT_INT32
    }
  }
  attr {
    key: "value"
    value {
      tensor {
        dtype: DT_INT32
        tensor_shape {
          dim {
            size: 2
          }
        }
        tensor_content: "@\000\000\000@\000\000\000"
      }
    }
  }
}
node {
  name: "gru_cell_1/gates/kernel/Initializer/random_uniform/min"
  op: "Const"
  attr {
    key: "_class"
    value {
      list {
        s: "loc:@gru_cell_1/gates/kernel"
      }
    }
  }
  attr {
    key: "_output_shapes"
    value {
      list {
        shape {
        }
      }
    }
  }
  attr {
    key: "dtype"
    value {
      type: DT_FLOAT
    }
  }
  attr {
    key: "value"
    value {
      tensor {
        dtype: DT_FLOAT
        tensor_shape {
        }
        float_val: -0.21650634706020355
      }
    }
  }
}
node {
  name: "gru_cell_1/gates/kernel/Initializer/random_uniform/max"
  op: "Const"
  attr {
    key: "_class"
    value {
      list {
        s: "loc:@gru_cell_1/gates/kernel"
      }
    }
  }
  attr {
    key: "_output_shapes"
    value {
      list {
        shape {
        }
      }
    }
  }
  attr {
    key: "dtype"
    value {
      type: DT_FLOAT
    }
  }
  attr {
    key: "value"
    value {
      tensor {
        dtype: DT_FLOAT
        tensor_shape {
        }
        float_val: 0.21650634706020355
      }
    }
  }
}
node {
  name: "gru_cell_1/gates/kernel/Initializer/random_uniform/RandomUniform"
  op: "RandomUniform"
  input: "gru_cell_1/gates/kernel/Initializer/random_uniform/shape"
  attr {
    key: "T"
    value {
      type: DT_INT32
    }
  }
  attr {
    key: "_class"
    value {
      list {
        s: "loc:@gru_cell_1/gates/kernel"
      }
    }
  }
  attr {
    key: "_output_shapes"
    value {
      list {
        shape {
          dim {
            size: 64
          }
          dim {
            size: 64
          }
        }
      }
    }
  }
  attr {
    key: "dtype"
    value {
      type: DT_FLOAT
    }
  }
  attr {
    key: "seed"
    value {
      i: 0
    }
  }
  attr {
    key: "seed2"
    value {
      i: 0
    }
  }
}
node {
  name: "gru_cell_1/gates/kernel/Initializer/random_uniform/sub"
  op: "Sub"
  input: "gru_cell_1/gates/kernel/Initializer/random_uniform/max"
  input: "gru_cell_1/gates/kernel/Initializer/random_uniform/min"
  attr {
    key: "T"
    value {
      type: DT_FLOAT
    }
  }
  attr {
    key: "_class"
    value {
      list {
        s: "loc:@gru_cell_1/gates/kernel"
      }
    }
  }
  attr {
    key: "_output_shapes"
    value {
      list {
        shape {
        }
      }
    }
  }
}
node {
  name: "gru_cell_1/gates/kernel/Initializer/random_uniform/mul"
  op: "Mul"
  input: "gru_cell_1/gates/kernel/Initializer/random_uniform/RandomUniform"
  input: "gru_cell_1/gates/kernel/Initializer/random_uniform/sub"
  attr {
    key: "T"
    value {
      type: DT_FLOAT
    }
  }
  attr {
    key: "_class"
    value {
      list {
        s: "loc:@gru_cell_1/gates/kernel"
      }
    }
  }
  attr {
    key: "_output_shapes"
    value {
      list {
        shape {
          dim {
            size: 64
          }
          dim {
            size: 64
          }
        }
      }
    }
  }
}
node {
  name: "gru_cell_1/gates/kernel/Initializer/random_uniform"
  op: "Add"
  input: "gru_cell_1/gates/kernel/Initializer/random_uniform/mul"
  input: "gru_cell_1/gates/kernel/Initializer/random_uniform/min"
  attr {
    key: "T"
    value {
      type: DT_FLOAT
    }
  }
  attr {
    key: "_class"
    value {
      list {
        s: "loc:@gru_cell_1/gates/kernel"
      }
    }
  }
  attr {
    key: "_output_shapes"
    value {
      list {
        shape {
          dim {
            size: 64
          }
          dim {
            size: 64
          }
        }
      }
    }
  }
}
node {
  name: "gru_cell_1/gates/kernel"
  op: "VarHandleOp"
  attr {
    key: "_class"
    value {
      list {
        s: "loc:@gru_cell_1/gates/kernel"
      }
    }
  }
  attr {
    key: "_output_shapes"
    value {
      list {
        shape {
        }
      }
    }
  }
  attr {
    key: "container"
    value {
      s: ""
    }
  }
  attr {
    key: "dtype"
    value {
      type: DT_FLOAT
    }
  }
  attr {
    key: "shape"
    value {
      shape {
        dim {
          size: 64
        }
        dim {
          size: 64
        }
      }
    }
  }
  attr {
    key: "shared_name"
    value {
      s: "gru_cell_1/gates/kernel"
    }
  }
}
node {
  name: "gru_cell_1/gates/kernel/IsInitialized/VarIsInitializedOp"
  op: "VarIsInitializedOp"
  input: "gru_cell_1/gates/kernel"
  attr {
    key: "_output_shapes"
    value {
      list {
        shape {
        }
      }
    }
  }
}
node {
  name: "gru_cell_1/gates/kernel/Assign"
  op: "AssignVariableOp"
  input: "gru_cell_1/gates/kernel"
  input: "gru_cell_1/gates/kernel/Initializer/random_uniform"
  attr {
    key: "_class"
    value {
      list {
        s: "loc:@gru_cell_1/gates/kernel"
      }
    }
  }
  attr {
    key: "dtype"
    value {
      type: DT_FLOAT
    }
  }
}
node {
  name: "gru_cell_1/gates/kernel/Read/ReadVariableOp"
  op: "ReadVariableOp"
  input: "gru_cell_1/gates/kernel"
  attr {
    key: "_class"
    value {
      list {
        s: "loc:@gru_cell_1/gates/kernel"
      }
    }
  }
  attr {
    key: "_output_shapes"
    value {
      list {
        shape {
          dim {
            size: 64
          }
          dim {
            size: 64
          }
        }
      }
    }
  }
  attr {
    key: "dtype"
    value {
      type: DT_FLOAT
    }
  }
}
node {
  name: "gru_cell_1/gates/bias/Initializer/Const"
  op: "Const"
  attr {
    key: "_class"
    value {
      list {
        s: "loc:@gru_cell_1/gates/bias"
      }
    }
  }
  attr {
    key: "_output_shapes"
    value {
      list {
        shape {
          dim {
            size: 64
          }
        }
      }
    }
  }
  attr {
    key: "dtype"
    value {
      type: DT_FLOAT
    }
  }
  attr {
    key: "value"
    value {
      tensor {
        dtype: DT_FLOAT
        tensor_shape {
          dim {
            size: 64
          }
        }
        float_val: 1.0
      }
    }
  }
}
node {
  name: "gru_cell_1/gates/bias"
  op: "VarHandleOp"
  attr {
    key: "_class"
    value {
      list {
        s: "loc:@gru_cell_1/gates/bias"
      }
    }
  }
  attr {
    key: "_output_shapes"
    value {
      list {
        shape {
        }
      }
    }
  }
  attr {
    key: "container"
    value {
      s: ""
    }
  }
  attr {
    key: "dtype"
    value {
      type: DT_FLOAT
    }
  }
  attr {
    key: "shape"
    value {
      shape {
        dim {
          size: 64
        }
      }
    }
  }
  attr {
    key: "shared_name"
    value {
      s: "gru_cell_1/gates/bias"
    }
  }
}
node {
  name: "gru_cell_1/gates/bias/IsInitialized/VarIsInitializedOp"
  op: "VarIsInitializedOp"
  input: "gru_cell_1/gates/bias"
  attr {
    key: "_output_shapes"
    value {
      list {
        shape {
        }
      }
    }
  }
}
node {
  name: "gru_cell_1/gates/bias/Assign"
  op: "AssignVariableOp"
  input: "gru_cell_1/gates/bias"
  input: "gru_cell_1/gates/bias/Initializer/Const"
  attr {
    key: "_class"
    value {
      list {
        s: "loc:@gru_cell_1/gates/bias"
      }
    }
  }
  attr {
    key: "dtype"
    value {
      type: DT_FLOAT
    }
  }
}
node {
  name: "gru_cell_1/gates/bias/Read/ReadVariableOp"
  op: "ReadVariableOp"
  input: "gru_cell_1/gates/bias"
  attr {
    key: "_class"
    value {
      list {
        s: "loc:@gru_cell_1/gates/bias"
      }
    }
  }
  attr {
    key: "_output_shapes"
    value {
      list {
        shape {
          dim {
            size: 64
          }
        }
      }
    }
  }
  attr {
    key: "dtype"
    value {
      type: DT_FLOAT
    }
  }
}
node {
  name: "gru_cell_1/candidate/kernel/Initializer/random_uniform/shape"
  op: "Const"
  attr {
    key: "_class"
    value {
      list {
        s: "loc:@gru_cell_1/candidate/kernel"
      }
    }
  }
  attr {
    key: "_output_shapes"
    value {
      list {
        shape {
          dim {
            size: 2
          }
        }
      }
    }
  }
  attr {
    key: "dtype"
    value {
      type: DT_INT32
    }
  }
  attr {
    key: "value"
    value {
      tensor {
        dtype: DT_INT32
        tensor_shape {
          dim {
            size: 2
          }
        }
        tensor_content: "@\000\000\000 \000\000\000"
      }
    }
  }
}
node {
  name: "gru_cell_1/candidate/kernel/Initializer/random_uniform/min"
  op: "Const"
  attr {
    key: "_class"
    value {
      list {
        s: "loc:@gru_cell_1/candidate/kernel"
      }
    }
  }
  attr {
    key: "_output_shapes"
    value {
      list {
        shape {
        }
      }
    }
  }
  attr {
    key: "dtype"
    value {
      type: DT_FLOAT
    }
  }
  attr {
    key: "value"
    value {
      tensor {
        dtype: DT_FLOAT
        tensor_shape {
        }
        float_val: -0.25
      }
    }
  }
}
node {
  name: "gru_cell_1/candidate/kernel/Initializer/random_uniform/max"
  op: "Const"
  attr {
    key: "_class"
    value {
      list {
        s: "loc:@gru_cell_1/candidate/kernel"
      }
    }
  }
  attr {
    key: "_output_shapes"
    value {
      list {
        shape {
        }
      }
    }
  }
  attr {
    key: "dtype"
    value {
      type: DT_FLOAT
    }
  }
  attr {
    key: "value"
    value {
      tensor {
        dtype: DT_FLOAT
        tensor_shape {
        }
        float_val: 0.25
      }
    }
  }
}
node {
  name: "gru_cell_1/candidate/kernel/Initializer/random_uniform/RandomUniform"
  op: "RandomUniform"
  input: "gru_cell_1/candidate/kernel/Initializer/random_uniform/shape"
  attr {
    key: "T"
    value {
      type: DT_INT32
    }
  }
  attr {
    key: "_class"
    value {
      list {
        s: "loc:@gru_cell_1/candidate/kernel"
      }
    }
  }
  attr {
    key: "_output_shapes"
    value {
      list {
        shape {
          dim {
            size: 64
          }
          dim {
            size: 32
          }
        }
      }
    }
  }
  attr {
    key: "dtype"
    value {
      type: DT_FLOAT
    }
  }
  attr {
    key: "seed"
    value {
      i: 0
    }
  }
  attr {
    key: "seed2"
    value {
      i: 0
    }
  }
}
node {
  name: "gru_cell_1/candidate/kernel/Initializer/random_uniform/sub"
  op: "Sub"
  input: "gru_cell_1/candidate/kernel/Initializer/random_uniform/max"
  input: "gru_cell_1/candidate/kernel/Initializer/random_uniform/min"
  attr {
    key: "T"
    value {
      type: DT_FLOAT
    }
  }
  attr {
    key: "_class"
    value {
      list {
        s: "loc:@gru_cell_1/candidate/kernel"
      }
    }
  }
  attr {
    key: "_output_shapes"
    value {
      list {
        shape {
        }
      }
    }
  }
}
node {
  name: "gru_cell_1/candidate/kernel/Initializer/random_uniform/mul"
  op: "Mul"
  input: "gru_cell_1/candidate/kernel/Initializer/random_uniform/RandomUniform"
  input: "gru_cell_1/candidate/kernel/Initializer/random_uniform/sub"
  attr {
    key: "T"
    value {
      type: DT_FLOAT
    }
  }
  attr {
    key: "_class"
    value {
      list {
        s: "loc:@gru_cell_1/candidate/kernel"
      }
    }
  }
  attr {
    key: "_output_shapes"
    value {
      list {
        shape {
          dim {
            size: 64
          }
          dim {
            size: 32
          }
        }
      }
    }
  }
}
node {
  name: "gru_cell_1/candidate/kernel/Initializer/random_uniform"
  op: "Add"
  input: "gru_cell_1/candidate/kernel/Initializer/random_uniform/mul"
  input: "gru_cell_1/candidate/kernel/Initializer/random_uniform/min"
  attr {
    key: "T"
    value {
      type: DT_FLOAT
    }
  }
  attr {
    key: "_class"
    value {
      list {
        s: "loc:@gru_cell_1/candidate/kernel"
      }
    }
  }
  attr {
    key: "_output_shapes"
    value {
      list {
        shape {
          dim {
            size: 64
          }
          dim {
            size: 32
          }
        }
      }
    }
  }
}
node {
  name: "gru_cell_1/candidate/kernel"
  op: "VarHandleOp"
  attr {
    key: "_class"
    value {
      list {
        s: "loc:@gru_cell_1/candidate/kernel"
      }
    }
  }
  attr {
    key: "_output_shapes"
    value {
      list {
        shape {
        }
      }
    }
  }
  attr {
    key: "container"
    value {
      s: ""
    }
  }
  attr {
    key: "dtype"
    value {
      type: DT_FLOAT
    }
  }
  attr {
    key: "shape"
    value {
      shape {
        dim {
          size: 64
        }
        dim {
          size: 32
        }
      }
    }
  }
  attr {
    key: "shared_name"
    value {
      s: "gru_cell_1/candidate/kernel"
    }
  }
}
node {
  name: "gru_cell_1/candidate/kernel/IsInitialized/VarIsInitializedOp"
  op: "VarIsInitializedOp"
  input: "gru_cell_1/candidate/kernel"
  attr {
    key: "_output_shapes"
    value {
      list {
        shape {
        }
      }
    }
  }
}
node {
  name: "gru_cell_1/candidate/kernel/Assign"
  op: "AssignVariableOp"
  input: "gru_cell_1/candidate/kernel"
  input: "gru_cell_1/candidate/kernel/Initializer/random_uniform"
  attr {
    key: "_class"
    value {
      list {
        s: "loc:@gru_cell_1/candidate/kernel"
      }
    }
  }
  attr {
    key: "dtype"
    value {
      type: DT_FLOAT
    }
  }
}
node {
  name: "gru_cell_1/candidate/kernel/Read/ReadVariableOp"
  op: "ReadVariableOp"
  input: "gru_cell_1/candidate/kernel"
  attr {
    key: "_class"
    value {
      list {
        s: "loc:@gru_cell_1/candidate/kernel"
      }
    }
  }
  attr {
    key: "_output_shapes"
    value {
      list {
        shape {
          dim {
            size: 64
          }
          dim {
            size: 32
          }
        }
      }
    }
  }
  attr {
    key: "dtype"
    value {
      type: DT_FLOAT
    }
  }
}
node {
  name: "gru_cell_1/candidate/bias/Initializer/zeros"
  op: "Const"
  attr {
    key: "_class"
    value {
      list {
        s: "loc:@gru_cell_1/candidate/bias"
      }
    }
  }
  attr {
    key: "_output_shapes"
    value {
      list {
        shape {
          dim {
            size: 32
          }
        }
      }
    }
  }
  attr {
    key: "dtype"
    value {
      type: DT_FLOAT
    }
  }
  attr {
    key: "value"
    value {
      tensor {
        dtype: DT_FLOAT
        tensor_shape {
          dim {
            size: 32
          }
        }
        float_val: 0.0
      }
    }
  }
}
node {
  name: "gru_cell_1/candidate/bias"
  op: "VarHandleOp"
  attr {
    key: "_class"
    value {
      list {
        s: "loc:@gru_cell_1/candidate/bias"
      }
    }
  }
  attr {
    key: "_output_shapes"
    value {
      list {
        shape {
        }
      }
    }
  }
  attr {
    key: "container"
    value {
      s: ""
    }
  }
  attr {
    key: "dtype"
    value {
      type: DT_FLOAT
    }
  }
  attr {
    key: "shape"
    value {
      shape {
        dim {
          size: 32
        }
      }
    }
  }
  attr {
    key: "shared_name"
    value {
      s: "gru_cell_1/candidate/bias"
    }
  }
}
node {
  name: "gru_cell_1/candidate/bias/IsInitialized/VarIsInitializedOp"
  op: "VarIsInitializedOp"
  input: "gru_cell_1/candidate/bias"
  attr {
    key: "_output_shapes"
    value {
      list {
        shape {
        }
      }
    }
  }
}
node {
  name: "gru_cell_1/candidate/bias/Assign"
  op: "AssignVariableOp"
  input: "gru_cell_1/candidate/bias"
  input: "gru_cell_1/candidate/bias/Initializer/zeros"
  attr {
    key: "_class"
    value {
      list {
        s: "loc:@gru_cell_1/candidate/bias"
      }
    }
  }
  attr {
    key: "dtype"
    value {
      type: DT_FLOAT
    }
  }
}
node {
  name: "gru_cell_1/candidate/bias/Read/ReadVariableOp"
  op: "ReadVariableOp"
  input: "gru_cell_1/candidate/bias"
  attr {
    key: "_class"
    value {
      list {
        s: "loc:@gru_cell_1/candidate/bias"
      }
    }
  }
  attr {
    key: "_output_shapes"
    value {
      list {
        shape {
          dim {
            size: 32
          }
        }
      }
    }
  }
  attr {
    key: "dtype"
    value {
      type: DT_FLOAT
    }
  }
}
node {
  name: "dense/kernel/Initializer/random_uniform/shape"
  op: "Const"
  attr {
    key: "_class"
    value {
      list {
        s: "loc:@dense/kernel"
      }
    }
  }
  attr {
    key: "_output_shapes"
    value {
      list {
        shape {
          dim {
            size: 2
          }
        }
      }
    }
  }
  attr {
    key: "dtype"
    value {
      type: DT_INT32
    }
  }
  attr {
    key: "value"
    value {
      tensor {
        dtype: DT_INT32
        tensor_shape {
          dim {
            size: 2
          }
        }
        tensor_content: " \000\000\000\000\001\000\000"
      }
    }
  }
}
node {
  name: "dense/kernel/Initializer/random_uniform/min"
  op: "Const"
  attr {
    key: "_class"
    value {
      list {
        s: "loc:@dense/kernel"
      }
    }
  }
  attr {
    key: "_output_shapes"
    value {
      list {
        shape {
        }
      }
    }
  }
  attr {
    key: "dtype"
    value {
      type: DT_FLOAT
    }
  }
  attr {
    key: "value"
    value {
      tensor {
        dtype: DT_FLOAT
        tensor_shape {
        }
        float_val: -0.14433756470680237
      }
    }
  }
}
node {
  name: "dense/kernel/Initializer/random_uniform/max"
  op: "Const"
  attr {
    key: "_class"
    value {
      list {
        s: "loc:@dense/kernel"
      }
    }
  }
  attr {
    key: "_output_shapes"
    value {
      list {
        shape {
        }
      }
    }
  }
  attr {
    key: "dtype"
    value {
      type: DT_FLOAT
    }
  }
  attr {
    key: "value"
    value {
      tensor {
        dtype: DT_FLOAT
        tensor_shape {
        }
        float_val: 0.14433756470680237
      }
    }
  }
}
node {
  name: "dense/kernel/Initializer/random_uniform/RandomUniform"
  op: "RandomUniform"
  input: "dense/kernel/Initializer/random_uniform/shape"
  attr {
    key: "T"
    value {
      type: DT_INT32
    }
  }
  attr {
    key: "_class"
    value {
      list {
        s: "loc:@dense/kernel"
      }
    }
  }
  attr {
    key: "_output_shapes"
    value {
      list {
        shape {
          dim {
            size: 32
          }
          dim {
            size: 256
          }
        }
      }
    }
  }
  attr {
    key: "dtype"
    value {
      type: DT_FLOAT
    }
  }
  attr {
    key: "seed"
    value {
      i: 0
    }
  }
  attr {
    key: "seed2"
    value {
      i: 0
    }
  }
}
node {
  name: "dense/kernel/Initializer/random_uniform/sub"
  op: "Sub"
  input: "dense/kernel/Initializer/random_uniform/max"
  input: "dense/kernel/Initializer/random_uniform/min"
  attr {
    key: "T"
    value {
      type: DT_FLOAT
    }
  }
  attr {
    key: "_class"
    value {
      list {
        s: "loc:@dense/kernel"
      }
    }
  }
  attr {
    key: "_output_shapes"
    value {
      list {
        shape {
        }
      }
    }
  }
}
node {
  name: "dense/kernel/Initializer/random_uniform/mul"
  op: "Mul"
  input: "dense/kernel/Initializer/random_uniform/RandomUniform"
  input: "dense/kernel/Initializer/random_uniform/sub"
  attr {
    key: "T"
    value {
      type: DT_FLOAT
    }
  }
  attr {
    key: "_class"
    value {
      list {
        s: "loc:@dense/kernel"
      }
    }
  }
  attr {
    key: "_output_shapes"
    value {
      list {
        shape {
          dim {
            size: 32
          }
          dim {
            size: 256
          }
        }
      }
    }
  }
}
node {
  name: "dense/kernel/Initializer/random_uniform"
  op: "Add"
  input: "dense/kernel/Initializer/random_uniform/mul"
  input: "dense/kernel/Initializer/random_uniform/min"
  attr {
    key: "T"
    value {
      type: DT_FLOAT
    }
  }
  attr {
    key: "_class"
    value {
      list {
        s: "loc:@dense/kernel"
      }
    }
  }
  attr {
    key: "_output_shapes"
    value {
      list {
        shape {
          dim {
            size: 32
          }
          dim {
            size: 256
          }
        }
      }
    }
  }
}
node {
  name: "dense/kernel"
  op: "VarHandleOp"
  attr {
    key: "_class"
    value {
      list {
        s: "loc:@dense/kernel"
      }
    }
  }
  attr {
    key: "_output_shapes"
    value {
      list {
        shape {
        }
      }
    }
  }
  attr {
    key: "container"
    value {
      s: ""
    }
  }
  attr {
    key: "dtype"
    value {
      type: DT_FLOAT
    }
  }
  attr {
    key: "shape"
    value {
      shape {
        dim {
          size: 32
        }
        dim {
          size: 256
        }
      }
    }
  }
  attr {
    key: "shared_name"
    value {
      s: "dense/kernel"
    }
  }
}
node {
  name: "dense/kernel/IsInitialized/VarIsInitializedOp"
  op: "VarIsInitializedOp"
  input: "dense/kernel"
  attr {
    key: "_output_shapes"
    value {
      list {
        shape {
        }
      }
    }
  }
}
node {
  name: "dense/kernel/Assign"
  op: "AssignVariableOp"
  input: "dense/kernel"
  input: "dense/kernel/Initializer/random_uniform"
  attr {
    key: "_class"
    value {
      list {
        s: "loc:@dense/kernel"
      }
    }
  }
  attr {
    key: "dtype"
    value {
      type: DT_FLOAT
    }
  }
}
node {
  name: "dense/kernel/Read/ReadVariableOp"
  op: "ReadVariableOp"
  input: "dense/kernel"
  attr {
    key: "_class"
    value {
      list {
        s: "loc:@dense/kernel"
      }
    }
  }
  attr {
    key: "_output_shapes"
    value {
      list {
        shape {
          dim {
            size: 32
          }
          dim {
            size: 256
          }
        }
      }
    }
  }
  attr {
    key: "dtype"
    value {
      type: DT_FLOAT
    }
  }
}
node {
  name: "dense/bias/Initializer/zeros"
  op: "Const"
  attr {
    key: "_class"
    value {
      list {
        s: "loc:@dense/bias"
      }
    }
  }
  attr {
    key: "_output_shapes"
    value {
      list {
        shape {
          dim {
            size: 256
          }
        }
      }
    }
  }
  attr {
    key: "dtype"
    value {
      type: DT_FLOAT
    }
  }
  attr {
    key: "value"
    value {
      tensor {
        dtype: DT_FLOAT
        tensor_shape {
          dim {
            size: 256
          }
        }
        float_val: 0.0
      }
    }
  }
}
node {
  name: "dense/bias"
  op: "VarHandleOp"
  attr {
    key: "_class"
    value {
      list {
        s: "loc:@dense/bias"
      }
    }
  }
  attr {
    key: "_output_shapes"
    value {
      list {
        shape {
        }
      }
    }
  }
  attr {
    key: "container"
    value {
      s: ""
    }
  }
  attr {
    key: "dtype"
    value {
      type: DT_FLOAT
    }
  }
  attr {
    key: "shape"
    value {
      shape {
        dim {
          size: 256
        }
      }
    }
  }
  attr {
    key: "shared_name"
    value {
      s: "dense/bias"
    }
  }
}
node {
  name: "dense/bias/IsInitialized/VarIsInitializedOp"
  op: "VarIsInitializedOp"
  input: "dense/bias"
  attr {
    key: "_output_shapes"
    value {
      list {
        shape {
        }
      }
    }
  }
}
node {
  name: "dense/bias/Assign"
  op: "AssignVariableOp"
  input: "dense/bias"
  input: "dense/bias/Initializer/zeros"
  attr {
    key: "_class"
    value {
      list {
        s: "loc:@dense/bias"
      }
    }
  }
  attr {
    key: "dtype"
    value {
      type: DT_FLOAT
    }
  }
}
node {
  name: "dense/bias/Read/ReadVariableOp"
  op: "ReadVariableOp"
  input: "dense/bias"
  attr {
    key: "_class"
    value {
      list {
        s: "loc:@dense/bias"
      }
    }
  }
  attr {
    key: "_output_shapes"
    value {
      list {
        shape {
          dim {
            size: 256
          }
        }
      }
    }
  }
  attr {
    key: "dtype"
    value {
      type: DT_FLOAT
    }
  }
}
node {
  name: "dense_1/kernel/Initializer/random_uniform/shape"
  op: "Const"
  attr {
    key: "_class"
    value {
      list {
        s: "loc:@dense_1/kernel"
      }
    }
  }
  attr {
    key: "_output_shapes"
    value {
      list {
        shape {
          dim {
            size: 2
          }
        }
      }
    }
  }
  attr {
    key: "dtype"
    value {
      type: DT_INT32
    }
  }
  attr {
    key: "value"
    value {
      tensor {
        dtype: DT_INT32
        tensor_shape {
          dim {
            size: 2
          }
        }
        tensor_content: "\000\001\000\000\000\001\000\000"
      }
    }
  }
}
node {
  name: "dense_1/kernel/Initializer/random_uniform/min"
  op: "Const"
  attr {
    key: "_class"
    value {
      list {
        s: "loc:@dense_1/kernel"
      }
    }
  }
  attr {
    key: "_output_shapes"
    value {
      list {
        shape {
        }
      }
    }
  }
  attr {
    key: "dtype"
    value {
      type: DT_FLOAT
    }
  }
  attr {
    key: "value"
    value {
      tensor {
        dtype: DT_FLOAT
        tensor_shape {
        }
        float_val: -0.10825317353010178
      }
    }
  }
}
node {
  name: "dense_1/kernel/Initializer/random_uniform/max"
  op: "Const"
  attr {
    key: "_class"
    value {
      list {
        s: "loc:@dense_1/kernel"
      }
    }
  }
  attr {
    key: "_output_shapes"
    value {
      list {
        shape {
        }
      }
    }
  }
  attr {
    key: "dtype"
    value {
      type: DT_FLOAT
    }
  }
  attr {
    key: "value"
    value {
      tensor {
        dtype: DT_FLOAT
        tensor_shape {
        }
        float_val: 0.10825317353010178
      }
    }
  }
}
node {
  name: "dense_1/kernel/Initializer/random_uniform/RandomUniform"
  op: "RandomUniform"
  input: "dense_1/kernel/Initializer/random_uniform/shape"
  attr {
    key: "T"
    value {
      type: DT_INT32
    }
  }
  attr {
    key: "_class"
    value {
      list {
        s: "loc:@dense_1/kernel"
      }
    }
  }
  attr {
    key: "_output_shapes"
    value {
      list {
        shape {
          dim {
            size: 256
          }
          dim {
            size: 256
          }
        }
      }
    }
  }
  attr {
    key: "dtype"
    value {
      type: DT_FLOAT
    }
  }
  attr {
    key: "seed"
    value {
      i: 0
    }
  }
  attr {
    key: "seed2"
    value {
      i: 0
    }
  }
}
node {
  name: "dense_1/kernel/Initializer/random_uniform/sub"
  op: "Sub"
  input: "dense_1/kernel/Initializer/random_uniform/max"
  input: "dense_1/kernel/Initializer/random_uniform/min"
  attr {
    key: "T"
    value {
      type: DT_FLOAT
    }
  }
  attr {
    key: "_class"
    value {
      list {
        s: "loc:@dense_1/kernel"
      }
    }
  }
  attr {
    key: "_output_shapes"
    value {
      list {
        shape {
        }
      }
    }
  }
}
node {
  name: "dense_1/kernel/Initializer/random_uniform/mul"
  op: "Mul"
  input: "dense_1/kernel/Initializer/random_uniform/RandomUniform"
  input: "dense_1/kernel/Initializer/random_uniform/sub"
  attr {
    key: "T"
    value {
      type: DT_FLOAT
    }
  }
  attr {
    key: "_class"
    value {
      list {
        s: "loc:@dense_1/kernel"
      }
    }
  }
  attr {
    key: "_output_shapes"
    value {
      list {
        shape {
          dim {
            size: 256
          }
          dim {
            size: 256
          }
        }
      }
    }
  }
}
node {
  name: "dense_1/kernel/Initializer/random_uniform"
  op: "Add"
  input: "dense_1/kernel/Initializer/random_uniform/mul"
  input: "dense_1/kernel/Initializer/random_uniform/min"
  attr {
    key: "T"
    value {
      type: DT_FLOAT
    }
  }
  attr {
    key: "_class"
    value {
      list {
        s: "loc:@dense_1/kernel"
      }
    }
  }
  attr {
    key: "_output_shapes"
    value {
      list {
        shape {
          dim {
            size: 256
          }
          dim {
            size: 256
          }
        }
      }
    }
  }
}
node {
  name: "dense_1/kernel"
  op: "VarHandleOp"
  attr {
    key: "_class"
    value {
      list {
        s: "loc:@dense_1/kernel"
      }
    }
  }
  attr {
    key: "_output_shapes"
    value {
      list {
        shape {
        }
      }
    }
  }
  attr {
    key: "container"
    value {
      s: ""
    }
  }
  attr {
    key: "dtype"
    value {
      type: DT_FLOAT
    }
  }
  attr {
    key: "shape"
    value {
      shape {
        dim {
          size: 256
        }
        dim {
          size: 256
        }
      }
    }
  }
  attr {
    key: "shared_name"
    value {
      s: "dense_1/kernel"
    }
  }
}
node {
  name: "dense_1/kernel/IsInitialized/VarIsInitializedOp"
  op: "VarIsInitializedOp"
  input: "dense_1/kernel"
  attr {
    key: "_output_shapes"
    value {
      list {
        shape {
        }
      }
    }
  }
}
node {
  name: "dense_1/kernel/Assign"
  op: "AssignVariableOp"
  input: "dense_1/kernel"
  input: "dense_1/kernel/Initializer/random_uniform"
  attr {
    key: "_class"
    value {
      list {
        s: "loc:@dense_1/kernel"
      }
    }
  }
  attr {
    key: "dtype"
    value {
      type: DT_FLOAT
    }
  }
}
node {
  name: "dense_1/kernel/Read/ReadVariableOp"
  op: "ReadVariableOp"
  input: "dense_1/kernel"
  attr {
    key: "_class"
    value {
      list {
        s: "loc:@dense_1/kernel"
      }
    }
  }
  attr {
    key: "_output_shapes"
    value {
      list {
        shape {
          dim {
            size: 256
          }
          dim {
            size: 256
          }
        }
      }
    }
  }
  attr {
    key: "dtype"
    value {
      type: DT_FLOAT
    }
  }
}
node {
  name: "dense_1/bias/Initializer/zeros"
  op: "Const"
  attr {
    key: "_class"
    value {
      list {
        s: "loc:@dense_1/bias"
      }
    }
  }
  attr {
    key: "_output_shapes"
    value {
      list {
        shape {
          dim {
            size: 256
          }
        }
      }
    }
  }
  attr {
    key: "dtype"
    value {
      type: DT_FLOAT
    }
  }
  attr {
    key: "value"
    value {
      tensor {
        dtype: DT_FLOAT
        tensor_shape {
          dim {
            size: 256
          }
        }
        float_val: 0.0
      }
    }
  }
}
node {
  name: "dense_1/bias"
  op: "VarHandleOp"
  attr {
    key: "_class"
    value {
      list {
        s: "loc:@dense_1/bias"
      }
    }
  }
  attr {
    key: "_output_shapes"
    value {
      list {
        shape {
        }
      }
    }
  }
  attr {
    key: "container"
    value {
      s: ""
    }
  }
  attr {
    key: "dtype"
    value {
      type: DT_FLOAT
    }
  }
  attr {
    key: "shape"
    value {
      shape {
        dim {
          size: 256
        }
      }
    }
  }
  attr {
    key: "shared_name"
    value {
      s: "dense_1/bias"
    }
  }
}
node {
  name: "dense_1/bias/IsInitialized/VarIsInitializedOp"
  op: "VarIsInitializedOp"
  input: "dense_1/bias"
  attr {
    key: "_output_shapes"
    value {
      list {
        shape {
        }
      }
    }
  }
}
node {
  name: "dense_1/bias/Assign"
  op: "AssignVariableOp"
  input: "dense_1/bias"
  input: "dense_1/bias/Initializer/zeros"
  attr {
    key: "_class"
    value {
      list {
        s: "loc:@dense_1/bias"
      }
    }
  }
  attr {
    key: "dtype"
    value {
      type: DT_FLOAT
    }
  }
}
node {
  name: "dense_1/bias/Read/ReadVariableOp"
  op: "ReadVariableOp"
  input: "dense_1/bias"
  attr {
    key: "_class"
    value {
      list {
        s: "loc:@dense_1/bias"
      }
    }
  }
  attr {
    key: "_output_shapes"
    value {
      list {
        shape {
          dim {
            size: 256
          }
        }
      }
    }
  }
  attr {
    key: "dtype"
    value {
      type: DT_FLOAT
    }
  }
}
node {
  name: "dense_2/kernel/Initializer/random_uniform/shape"
  op: "Const"
  attr {
    key: "_class"
    value {
      list {
        s: "loc:@dense_2/kernel"
      }
    }
  }
  attr {
    key: "_output_shapes"
    value {
      list {
        shape {
          dim {
            size: 2
          }
        }
      }
    }
  }
  attr {
    key: "dtype"
    value {
      type: DT_INT32
    }
  }
  attr {
    key: "value"
    value {
      tensor {
        dtype: DT_INT32
        tensor_shape {
          dim {
            size: 2
          }
        }
        tensor_content: "\000\001\000\000\001\000\000\000"
      }
    }
  }
}
node {
  name: "dense_2/kernel/Initializer/random_uniform/min"
  op: "Const"
  attr {
    key: "_class"
    value {
      list {
        s: "loc:@dense_2/kernel"
      }
    }
  }
  attr {
    key: "_output_shapes"
    value {
      list {
        shape {
        }
      }
    }
  }
  attr {
    key: "dtype"
    value {
      type: DT_FLOAT
    }
  }
  attr {
    key: "value"
    value {
      tensor {
        dtype: DT_FLOAT
        tensor_shape {
        }
        float_val: -0.1527949720621109
      }
    }
  }
}
node {
  name: "dense_2/kernel/Initializer/random_uniform/max"
  op: "Const"
  attr {
    key: "_class"
    value {
      list {
        s: "loc:@dense_2/kernel"
      }
    }
  }
  attr {
    key: "_output_shapes"
    value {
      list {
        shape {
        }
      }
    }
  }
  attr {
    key: "dtype"
    value {
      type: DT_FLOAT
    }
  }
  attr {
    key: "value"
    value {
      tensor {
        dtype: DT_FLOAT
        tensor_shape {
        }
        float_val: 0.1527949720621109
      }
    }
  }
}
node {
  name: "dense_2/kernel/Initializer/random_uniform/RandomUniform"
  op: "RandomUniform"
  input: "dense_2/kernel/Initializer/random_uniform/shape"
  attr {
    key: "T"
    value {
      type: DT_INT32
    }
  }
  attr {
    key: "_class"
    value {
      list {
        s: "loc:@dense_2/kernel"
      }
    }
  }
  attr {
    key: "_output_shapes"
    value {
      list {
        shape {
          dim {
            size: 256
          }
          dim {
            size: 1
          }
        }
      }
    }
  }
  attr {
    key: "dtype"
    value {
      type: DT_FLOAT
    }
  }
  attr {
    key: "seed"
    value {
      i: 0
    }
  }
  attr {
    key: "seed2"
    value {
      i: 0
    }
  }
}
node {
  name: "dense_2/kernel/Initializer/random_uniform/sub"
  op: "Sub"
  input: "dense_2/kernel/Initializer/random_uniform/max"
  input: "dense_2/kernel/Initializer/random_uniform/min"
  attr {
    key: "T"
    value {
      type: DT_FLOAT
    }
  }
  attr {
    key: "_class"
    value {
      list {
        s: "loc:@dense_2/kernel"
      }
    }
  }
  attr {
    key: "_output_shapes"
    value {
      list {
        shape {
        }
      }
    }
  }
}
node {
  name: "dense_2/kernel/Initializer/random_uniform/mul"
  op: "Mul"
  input: "dense_2/kernel/Initializer/random_uniform/RandomUniform"
  input: "dense_2/kernel/Initializer/random_uniform/sub"
  attr {
    key: "T"
    value {
      type: DT_FLOAT
    }
  }
  attr {
    key: "_class"
    value {
      list {
        s: "loc:@dense_2/kernel"
      }
    }
  }
  attr {
    key: "_output_shapes"
    value {
      list {
        shape {
          dim {
            size: 256
          }
          dim {
            size: 1
          }
        }
      }
    }
  }
}
node {
  name: "dense_2/kernel/Initializer/random_uniform"
  op: "Add"
  input: "dense_2/kernel/Initializer/random_uniform/mul"
  input: "dense_2/kernel/Initializer/random_uniform/min"
  attr {
    key: "T"
    value {
      type: DT_FLOAT
    }
  }
  attr {
    key: "_class"
    value {
      list {
        s: "loc:@dense_2/kernel"
      }
    }
  }
  attr {
    key: "_output_shapes"
    value {
      list {
        shape {
          dim {
            size: 256
          }
          dim {
            size: 1
          }
        }
      }
    }
  }
}
node {
  name: "dense_2/kernel"
  op: "VarHandleOp"
  attr {
    key: "_class"
    value {
      list {
        s: "loc:@dense_2/kernel"
      }
    }
  }
  attr {
    key: "_output_shapes"
    value {
      list {
        shape {
        }
      }
    }
  }
  attr {
    key: "container"
    value {
      s: ""
    }
  }
  attr {
    key: "dtype"
    value {
      type: DT_FLOAT
    }
  }
  attr {
    key: "shape"
    value {
      shape {
        dim {
          size: 256
        }
        dim {
          size: 1
        }
      }
    }
  }
  attr {
    key: "shared_name"
    value {
      s: "dense_2/kernel"
    }
  }
}
node {
  name: "dense_2/kernel/IsInitialized/VarIsInitializedOp"
  op: "VarIsInitializedOp"
  input: "dense_2/kernel"
  attr {
    key: "_output_shapes"
    value {
      list {
        shape {
        }
      }
    }
  }
}
node {
  name: "dense_2/kernel/Assign"
  op: "AssignVariableOp"
  input: "dense_2/kernel"
  input: "dense_2/kernel/Initializer/random_uniform"
  attr {
    key: "_class"
    value {
      list {
        s: "loc:@dense_2/kernel"
      }
    }
  }
  attr {
    key: "dtype"
    value {
      type: DT_FLOAT
    }
  }
}
node {
  name: "dense_2/kernel/Read/ReadVariableOp"
  op: "ReadVariableOp"
  input: "dense_2/kernel"
  attr {
    key: "_class"
    value {
      list {
        s: "loc:@dense_2/kernel"
      }
    }
  }
  attr {
    key: "_output_shapes"
    value {
      list {
        shape {
          dim {
            size: 256
          }
          dim {
            size: 1
          }
        }
      }
    }
  }
  attr {
    key: "dtype"
    value {
      type: DT_FLOAT
    }
  }
}
node {
  name: "dense_2/bias/Initializer/zeros"
  op: "Const"
  attr {
    key: "_class"
    value {
      list {
        s: "loc:@dense_2/bias"
      }
    }
  }
  attr {
    key: "_output_shapes"
    value {
      list {
        shape {
          dim {
            size: 1
          }
        }
      }
    }
  }
  attr {
    key: "dtype"
    value {
      type: DT_FLOAT
    }
  }
  attr {
    key: "value"
    value {
      tensor {
        dtype: DT_FLOAT
        tensor_shape {
          dim {
            size: 1
          }
        }
        float_val: 0.0
      }
    }
  }
}
node {
  name: "dense_2/bias"
  op: "VarHandleOp"
  attr {
    key: "_class"
    value {
      list {
        s: "loc:@dense_2/bias"
      }
    }
  }
  attr {
    key: "_output_shapes"
    value {
      list {
        shape {
        }
      }
    }
  }
  attr {
    key: "container"
    value {
      s: ""
    }
  }
  attr {
    key: "dtype"
    value {
      type: DT_FLOAT
    }
  }
  attr {
    key: "shape"
    value {
      shape {
        dim {
          size: 1
        }
      }
    }
  }
  attr {
    key: "shared_name"
    value {
      s: "dense_2/bias"
    }
  }
}
node {
  name: "dense_2/bias/IsInitialized/VarIsInitializedOp"
  op: "VarIsInitializedOp"
  input: "dense_2/bias"
  attr {
    key: "_output_shapes"
    value {
      list {
        shape {
        }
      }
    }
  }
}
node {
  name: "dense_2/bias/Assign"
  op: "AssignVariableOp"
  input: "dense_2/bias"
  input: "dense_2/bias/Initializer/zeros"
  attr {
    key: "_class"
    value {
      list {
        s: "loc:@dense_2/bias"
      }
    }
  }
  attr {
    key: "dtype"
    value {
      type: DT_FLOAT
    }
  }
}
node {
  name: "dense_2/bias/Read/ReadVariableOp"
  op: "ReadVariableOp"
  input: "dense_2/bias"
  attr {
    key: "_class"
    value {
      list {
        s: "loc:@dense_2/bias"
      }
    }
  }
  attr {
    key: "_output_shapes"
    value {
      list {
        shape {
          dim {
            size: 1
          }
        }
      }
    }
  }
  attr {
    key: "dtype"
    value {
      type: DT_FLOAT
    }
  }
}
node {
  name: "map/Shape"
  op: "Shape"
  input: "IteratorGetNext"
  attr {
    key: "T"
    value {
      type: DT_INT64
    }
  }
  attr {
    key: "_output_shapes"
    value {
      list {
        shape {
          dim {
            size: 2
          }
        }
      }
    }
  }
  attr {
    key: "out_type"
    value {
      type: DT_INT32
    }
  }
}
node {
  name: "map/strided_slice/stack"
  op: "Const"
  attr {
    key: "_output_shapes"
    value {
      list {
        shape {
          dim {
            size: 1
          }
        }
      }
    }
  }
  attr {
    key: "dtype"
    value {
      type: DT_INT32
    }
  }
  attr {
    key: "value"
    value {
      tensor {
        dtype: DT_INT32
        tensor_shape {
          dim {
            size: 1
          }
        }
        int_val: 0
      }
    }
  }
}
node {
  name: "map/strided_slice/stack_1"
  op: "Const"
  attr {
    key: "_output_shapes"
    value {
      list {
        shape {
          dim {
            size: 1
          }
        }
      }
    }
  }
  attr {
    key: "dtype"
    value {
      type: DT_INT32
    }
  }
  attr {
    key: "value"
    value {
      tensor {
        dtype: DT_INT32
        tensor_shape {
          dim {
            size: 1
          }
        }
        int_val: 1
      }
    }
  }
}
node {
  name: "map/strided_slice/stack_2"
  op: "Const"
  attr {
    key: "_output_shapes"
    value {
      list {
        shape {
          dim {
            size: 1
          }
        }
      }
    }
  }
  attr {
    key: "dtype"
    value {
      type: DT_INT32
    }
  }
  attr {
    key: "value"
    value {
      tensor {
        dtype: DT_INT32
        tensor_shape {
          dim {
            size: 1
          }
        }
        int_val: 1
      }
    }
  }
}
node {
  name: "map/strided_slice"
  op: "StridedSlice"
  input: "map/Shape"
  input: "map/strided_slice/stack"
  input: "map/strided_slice/stack_1"
  input: "map/strided_slice/stack_2"
  attr {
    key: "Index"
    value {
      type: DT_INT32
    }
  }
  attr {
    key: "T"
    value {
      type: DT_INT32
    }
  }
  attr {
    key: "_output_shapes"
    value {
      list {
        shape {
        }
      }
    }
  }
  attr {
    key: "begin_mask"
    value {
      i: 0
    }
  }
  attr {
    key: "ellipsis_mask"
    value {
      i: 0
    }
  }
  attr {
    key: "end_mask"
    value {
      i: 0
    }
  }
  attr {
    key: "new_axis_mask"
    value {
      i: 0
    }
  }
  attr {
    key: "shrink_axis_mask"
    value {
      i: 1
    }
  }
}
node {
  name: "map/TensorArray"
  op: "TensorArrayV3"
  input: "map/strided_slice"
  attr {
    key: "_output_shapes"
    value {
      list {
        shape {
          dim {
            size: 2
          }
        }
        shape {
        }
      }
    }
  }
  attr {
    key: "clear_after_read"
    value {
      b: true
    }
  }
  attr {
    key: "dtype"
    value {
      type: DT_INT64
    }
  }
  attr {
    key: "dynamic_size"
    value {
      b: false
    }
  }
  attr {
    key: "element_shape"
    value {
      shape {
        unknown_rank: true
      }
    }
  }
  attr {
    key: "identical_element_shapes"
    value {
      b: true
    }
  }
  attr {
    key: "tensor_array_name"
    value {
      s: ""
    }
  }
}
node {
  name: "map/TensorArray_1"
  op: "TensorArrayV3"
  input: "map/strided_slice"
  attr {
    key: "_output_shapes"
    value {
      list {
        shape {
          dim {
            size: 2
          }
        }
        shape {
        }
      }
    }
  }
  attr {
    key: "clear_after_read"
    value {
      b: true
    }
  }
  attr {
    key: "dtype"
    value {
      type: DT_INT64
    }
  }
  attr {
    key: "dynamic_size"
    value {
      b: false
    }
  }
  attr {
    key: "element_shape"
    value {
      shape {
        unknown_rank: true
      }
    }
  }
  attr {
    key: "identical_element_shapes"
    value {
      b: true
    }
  }
  attr {
    key: "tensor_array_name"
    value {
      s: ""
    }
  }
}
node {
  name: "map/TensorArray_2"
  op: "TensorArrayV3"
  input: "map/strided_slice"
  attr {
    key: "_output_shapes"
    value {
      list {
        shape {
          dim {
            size: 2
          }
        }
        shape {
        }
      }
    }
  }
  attr {
    key: "clear_after_read"
    value {
      b: true
    }
  }
  attr {
    key: "dtype"
    value {
      type: DT_INT64
    }
  }
  attr {
    key: "dynamic_size"
    value {
      b: false
    }
  }
  attr {
    key: "element_shape"
    value {
      shape {
        unknown_rank: true
      }
    }
  }
  attr {
    key: "identical_element_shapes"
    value {
      b: true
    }
  }
  attr {
    key: "tensor_array_name"
    value {
      s: ""
    }
  }
}
node {
  name: "map/TensorArray_3"
  op: "TensorArrayV3"
  input: "map/strided_slice"
  attr {
    key: "_output_shapes"
    value {
      list {
        shape {
          dim {
            size: 2
          }
        }
        shape {
        }
      }
    }
  }
  attr {
    key: "clear_after_read"
    value {
      b: true
    }
  }
  attr {
    key: "dtype"
    value {
      type: DT_INT64
    }
  }
  attr {
    key: "dynamic_size"
    value {
      b: false
    }
  }
  attr {
    key: "element_shape"
    value {
      shape {
        unknown_rank: true
      }
    }
  }
  attr {
    key: "identical_element_shapes"
    value {
      b: true
    }
  }
  attr {
    key: "tensor_array_name"
    value {
      s: ""
    }
  }
}
node {
  name: "map/TensorArray_4"
  op: "TensorArrayV3"
  input: "map/strided_slice"
  attr {
    key: "_output_shapes"
    value {
      list {
        shape {
          dim {
            size: 2
          }
        }
        shape {
        }
      }
    }
  }
  attr {
    key: "clear_after_read"
    value {
      b: true
    }
  }
  attr {
    key: "dtype"
    value {
      type: DT_INT64
    }
  }
  attr {
    key: "dynamic_size"
    value {
      b: false
    }
  }
  attr {
    key: "element_shape"
    value {
      shape {
        unknown_rank: true
      }
    }
  }
  attr {
    key: "identical_element_shapes"
    value {
      b: true
    }
  }
  attr {
    key: "tensor_array_name"
    value {
      s: ""
    }
  }
}
node {
  name: "map/TensorArray_5"
  op: "TensorArrayV3"
  input: "map/strided_slice"
  attr {
    key: "_output_shapes"
    value {
      list {
        shape {
          dim {
            size: 2
          }
        }
        shape {
        }
      }
    }
  }
  attr {
    key: "clear_after_read"
    value {
      b: true
    }
  }
  attr {
    key: "dtype"
    value {
      type: DT_INT64
    }
  }
  attr {
    key: "dynamic_size"
    value {
      b: false
    }
  }
  attr {
    key: "element_shape"
    value {
      shape {
        unknown_rank: true
      }
    }
  }
  attr {
    key: "identical_element_shapes"
    value {
      b: true
    }
  }
  attr {
    key: "tensor_array_name"
    value {
      s: ""
    }
  }
}
node {
  name: "map/TensorArray_6"
  op: "TensorArrayV3"
  input: "map/strided_slice"
  attr {
    key: "_output_shapes"
    value {
      list {
        shape {
          dim {
            size: 2
          }
        }
        shape {
        }
      }
    }
  }
  attr {
    key: "clear_after_read"
    value {
      b: true
    }
  }
  attr {
    key: "dtype"
    value {
      type: DT_FLOAT
    }
  }
  attr {
    key: "dynamic_size"
    value {
      b: false
    }
  }
  attr {
    key: "element_shape"
    value {
      shape {
        unknown_rank: true
      }
    }
  }
  attr {
    key: "identical_element_shapes"
    value {
      b: true
    }
  }
  attr {
    key: "tensor_array_name"
    value {
      s: ""
    }
  }
}
node {
  name: "map/TensorArrayUnstack/Shape"
  op: "Shape"
  input: "IteratorGetNext"
  attr {
    key: "T"
    value {
      type: DT_INT64
    }
  }
  attr {
    key: "_output_shapes"
    value {
      list {
        shape {
          dim {
            size: 2
          }
        }
      }
    }
  }
  attr {
    key: "out_type"
    value {
      type: DT_INT32
    }
  }
}
node {
  name: "map/TensorArrayUnstack/strided_slice/stack"
  op: "Const"
  attr {
    key: "_output_shapes"
    value {
      list {
        shape {
          dim {
            size: 1
          }
        }
      }
    }
  }
  attr {
    key: "dtype"
    value {
      type: DT_INT32
    }
  }
  attr {
    key: "value"
    value {
      tensor {
        dtype: DT_INT32
        tensor_shape {
          dim {
            size: 1
          }
        }
        int_val: 0
      }
    }
  }
}
node {
  name: "map/TensorArrayUnstack/strided_slice/stack_1"
  op: "Const"
  attr {
    key: "_output_shapes"
    value {
      list {
        shape {
          dim {
            size: 1
          }
        }
      }
    }
  }
  attr {
    key: "dtype"
    value {
      type: DT_INT32
    }
  }
  attr {
    key: "value"
    value {
      tensor {
        dtype: DT_INT32
        tensor_shape {
          dim {
            size: 1
          }
        }
        int_val: 1
      }
    }
  }
}
node {
  name: "map/TensorArrayUnstack/strided_slice/stack_2"
  op: "Const"
  attr {
    key: "_output_shapes"
    value {
      list {
        shape {
          dim {
            size: 1
          }
        }
      }
    }
  }
  attr {
    key: "dtype"
    value {
      type: DT_INT32
    }
  }
  attr {
    key: "value"
    value {
      tensor {
        dtype: DT_INT32
        tensor_shape {
          dim {
            size: 1
          }
        }
        int_val: 1
      }
    }
  }
}
node {
  name: "map/TensorArrayUnstack/strided_slice"
  op: "StridedSlice"
  input: "map/TensorArrayUnstack/Shape"
  input: "map/TensorArrayUnstack/strided_slice/stack"
  input: "map/TensorArrayUnstack/strided_slice/stack_1"
  input: "map/TensorArrayUnstack/strided_slice/stack_2"
  attr {
    key: "Index"
    value {
      type: DT_INT32
    }
  }
  attr {
    key: "T"
    value {
      type: DT_INT32
    }
  }
  attr {
    key: "_output_shapes"
    value {
      list {
        shape {
        }
      }
    }
  }
  attr {
    key: "begin_mask"
    value {
      i: 0
    }
  }
  attr {
    key: "ellipsis_mask"
    value {
      i: 0
    }
  }
  attr {
    key: "end_mask"
    value {
      i: 0
    }
  }
  attr {
    key: "new_axis_mask"
    value {
      i: 0
    }
  }
  attr {
    key: "shrink_axis_mask"
    value {
      i: 1
    }
  }
}
node {
  name: "map/TensorArrayUnstack/range/start"
  op: "Const"
  attr {
    key: "_output_shapes"
    value {
      list {
        shape {
        }
      }
    }
  }
  attr {
    key: "dtype"
    value {
      type: DT_INT32
    }
  }
  attr {
    key: "value"
    value {
      tensor {
        dtype: DT_INT32
        tensor_shape {
        }
        int_val: 0
      }
    }
  }
}
node {
  name: "map/TensorArrayUnstack/range/delta"
  op: "Const"
  attr {
    key: "_output_shapes"
    value {
      list {
        shape {
        }
      }
    }
  }
  attr {
    key: "dtype"
    value {
      type: DT_INT32
    }
  }
  attr {
    key: "value"
    value {
      tensor {
        dtype: DT_INT32
        tensor_shape {
        }
        int_val: 1
      }
    }
  }
}
node {
  name: "map/TensorArrayUnstack/range"
  op: "Range"
  input: "map/TensorArrayUnstack/range/start"
  input: "map/TensorArrayUnstack/strided_slice"
  input: "map/TensorArrayUnstack/range/delta"
  attr {
    key: "Tidx"
    value {
      type: DT_INT32
    }
  }
  attr {
    key: "_output_shapes"
    value {
      list {
        shape {
          dim {
            size: -1
          }
        }
      }
    }
  }
}
node {
  name: "map/TensorArrayUnstack/TensorArrayScatter/TensorArrayScatterV3"
  op: "TensorArrayScatterV3"
  input: "map/TensorArray"
  input: "map/TensorArrayUnstack/range"
  input: "IteratorGetNext"
  input: "map/TensorArray:1"
  device: "/device:CPU:0"
  attr {
    key: "T"
    value {
      type: DT_INT64
    }
  }
  attr {
    key: "_class"
    value {
      list {
        s: "loc:@IteratorGetNext"
      }
    }
  }
  attr {
    key: "_output_shapes"
    value {
      list {
        shape {
        }
      }
    }
  }
}
node {
  name: "map/TensorArrayUnstack_1/Shape"
  op: "Shape"
  input: "IteratorGetNext:1"
  attr {
    key: "T"
    value {
      type: DT_INT64
    }
  }
  attr {
    key: "_output_shapes"
    value {
      list {
        shape {
          dim {
            size: 1
          }
        }
      }
    }
  }
  attr {
    key: "out_type"
    value {
      type: DT_INT32
    }
  }
}
node {
  name: "map/TensorArrayUnstack_1/strided_slice/stack"
  op: "Const"
  attr {
    key: "_output_shapes"
    value {
      list {
        shape {
          dim {
            size: 1
          }
        }
      }
    }
  }
  attr {
    key: "dtype"
    value {
      type: DT_INT32
    }
  }
  attr {
    key: "value"
    value {
      tensor {
        dtype: DT_INT32
        tensor_shape {
          dim {
            size: 1
          }
        }
        int_val: 0
      }
    }
  }
}
node {
  name: "map/TensorArrayUnstack_1/strided_slice/stack_1"
  op: "Const"
  attr {
    key: "_output_shapes"
    value {
      list {
        shape {
          dim {
            size: 1
          }
        }
      }
    }
  }
  attr {
    key: "dtype"
    value {
      type: DT_INT32
    }
  }
  attr {
    key: "value"
    value {
      tensor {
        dtype: DT_INT32
        tensor_shape {
          dim {
            size: 1
          }
        }
        int_val: 1
      }
    }
  }
}
node {
  name: "map/TensorArrayUnstack_1/strided_slice/stack_2"
  op: "Const"
  attr {
    key: "_output_shapes"
    value {
      list {
        shape {
          dim {
            size: 1
          }
        }
      }
    }
  }
  attr {
    key: "dtype"
    value {
      type: DT_INT32
    }
  }
  attr {
    key: "value"
    value {
      tensor {
        dtype: DT_INT32
        tensor_shape {
          dim {
            size: 1
          }
        }
        int_val: 1
      }
    }
  }
}
node {
  name: "map/TensorArrayUnstack_1/strided_slice"
  op: "StridedSlice"
  input: "map/TensorArrayUnstack_1/Shape"
  input: "map/TensorArrayUnstack_1/strided_slice/stack"
  input: "map/TensorArrayUnstack_1/strided_slice/stack_1"
  input: "map/TensorArrayUnstack_1/strided_slice/stack_2"
  attr {
    key: "Index"
    value {
      type: DT_INT32
    }
  }
  attr {
    key: "T"
    value {
      type: DT_INT32
    }
  }
  attr {
    key: "_output_shapes"
    value {
      list {
        shape {
        }
      }
    }
  }
  attr {
    key: "begin_mask"
    value {
      i: 0
    }
  }
  attr {
    key: "ellipsis_mask"
    value {
      i: 0
    }
  }
  attr {
    key: "end_mask"
    value {
      i: 0
    }
  }
  attr {
    key: "new_axis_mask"
    value {
      i: 0
    }
  }
  attr {
    key: "shrink_axis_mask"
    value {
      i: 1
    }
  }
}
node {
  name: "map/TensorArrayUnstack_1/range/start"
  op: "Const"
  attr {
    key: "_output_shapes"
    value {
      list {
        shape {
        }
      }
    }
  }
  attr {
    key: "dtype"
    value {
      type: DT_INT32
    }
  }
  attr {
    key: "value"
    value {
      tensor {
        dtype: DT_INT32
        tensor_shape {
        }
        int_val: 0
      }
    }
  }
}
node {
  name: "map/TensorArrayUnstack_1/range/delta"
  op: "Const"
  attr {
    key: "_output_shapes"
    value {
      list {
        shape {
        }
      }
    }
  }
  attr {
    key: "dtype"
    value {
      type: DT_INT32
    }
  }
  attr {
    key: "value"
    value {
      tensor {
        dtype: DT_INT32
        tensor_shape {
        }
        int_val: 1
      }
    }
  }
}
node {
  name: "map/TensorArrayUnstack_1/range"
  op: "Range"
  input: "map/TensorArrayUnstack_1/range/start"
  input: "map/TensorArrayUnstack_1/strided_slice"
  input: "map/TensorArrayUnstack_1/range/delta"
  attr {
    key: "Tidx"
    value {
      type: DT_INT32
    }
  }
  attr {
    key: "_output_shapes"
    value {
      list {
        shape {
          dim {
            size: -1
          }
        }
      }
    }
  }
}
node {
  name: "map/TensorArrayUnstack_1/TensorArrayScatter/TensorArrayScatterV3"
  op: "TensorArrayScatterV3"
  input: "map/TensorArray_1"
  input: "map/TensorArrayUnstack_1/range"
  input: "IteratorGetNext:1"
  input: "map/TensorArray_1:1"
  device: "/device:CPU:0"
  attr {
    key: "T"
    value {
      type: DT_INT64
    }
  }
  attr {
    key: "_class"
    value {
      list {
        s: "loc:@IteratorGetNext"
      }
    }
  }
  attr {
    key: "_output_shapes"
    value {
      list {
        shape {
        }
      }
    }
  }
}
node {
  name: "map/TensorArrayUnstack_2/Shape"
  op: "Shape"
  input: "IteratorGetNext:2"
  attr {
    key: "T"
    value {
      type: DT_INT64
    }
  }
  attr {
    key: "_output_shapes"
    value {
      list {
        shape {
          dim {
            size: 1
          }
        }
      }
    }
  }
  attr {
    key: "out_type"
    value {
      type: DT_INT32
    }
  }
}
node {
  name: "map/TensorArrayUnstack_2/strided_slice/stack"
  op: "Const"
  attr {
    key: "_output_shapes"
    value {
      list {
        shape {
          dim {
            size: 1
          }
        }
      }
    }
  }
  attr {
    key: "dtype"
    value {
      type: DT_INT32
    }
  }
  attr {
    key: "value"
    value {
      tensor {
        dtype: DT_INT32
        tensor_shape {
          dim {
            size: 1
          }
        }
        int_val: 0
      }
    }
  }
}
node {
  name: "map/TensorArrayUnstack_2/strided_slice/stack_1"
  op: "Const"
  attr {
    key: "_output_shapes"
    value {
      list {
        shape {
          dim {
            size: 1
          }
        }
      }
    }
  }
  attr {
    key: "dtype"
    value {
      type: DT_INT32
    }
  }
  attr {
    key: "value"
    value {
      tensor {
        dtype: DT_INT32
        tensor_shape {
          dim {
            size: 1
          }
        }
        int_val: 1
      }
    }
  }
}
node {
  name: "map/TensorArrayUnstack_2/strided_slice/stack_2"
  op: "Const"
  attr {
    key: "_output_shapes"
    value {
      list {
        shape {
          dim {
            size: 1
          }
        }
      }
    }
  }
  attr {
    key: "dtype"
    value {
      type: DT_INT32
    }
  }
  attr {
    key: "value"
    value {
      tensor {
        dtype: DT_INT32
        tensor_shape {
          dim {
            size: 1
          }
        }
        int_val: 1
      }
    }
  }
}
node {
  name: "map/TensorArrayUnstack_2/strided_slice"
  op: "StridedSlice"
  input: "map/TensorArrayUnstack_2/Shape"
  input: "map/TensorArrayUnstack_2/strided_slice/stack"
  input: "map/TensorArrayUnstack_2/strided_slice/stack_1"
  input: "map/TensorArrayUnstack_2/strided_slice/stack_2"
  attr {
    key: "Index"
    value {
      type: DT_INT32
    }
  }
  attr {
    key: "T"
    value {
      type: DT_INT32
    }
  }
  attr {
    key: "_output_shapes"
    value {
      list {
        shape {
        }
      }
    }
  }
  attr {
    key: "begin_mask"
    value {
      i: 0
    }
  }
  attr {
    key: "ellipsis_mask"
    value {
      i: 0
    }
  }
  attr {
    key: "end_mask"
    value {
      i: 0
    }
  }
  attr {
    key: "new_axis_mask"
    value {
      i: 0
    }
  }
  attr {
    key: "shrink_axis_mask"
    value {
      i: 1
    }
  }
}
node {
  name: "map/TensorArrayUnstack_2/range/start"
  op: "Const"
  attr {
    key: "_output_shapes"
    value {
      list {
        shape {
        }
      }
    }
  }
  attr {
    key: "dtype"
    value {
      type: DT_INT32
    }
  }
  attr {
    key: "value"
    value {
      tensor {
        dtype: DT_INT32
        tensor_shape {
        }
        int_val: 0
      }
    }
  }
}
node {
  name: "map/TensorArrayUnstack_2/range/delta"
  op: "Const"
  attr {
    key: "_output_shapes"
    value {
      list {
        shape {
        }
      }
    }
  }
  attr {
    key: "dtype"
    value {
      type: DT_INT32
    }
  }
  attr {
    key: "value"
    value {
      tensor {
        dtype: DT_INT32
        tensor_shape {
        }
        int_val: 1
      }
    }
  }
}
node {
  name: "map/TensorArrayUnstack_2/range"
  op: "Range"
  input: "map/TensorArrayUnstack_2/range/start"
  input: "map/TensorArrayUnstack_2/strided_slice"
  input: "map/TensorArrayUnstack_2/range/delta"
  attr {
    key: "Tidx"
    value {
      type: DT_INT32
    }
  }
  attr {
    key: "_output_shapes"
    value {
      list {
        shape {
          dim {
            size: -1
          }
        }
      }
    }
  }
}
node {
  name: "map/TensorArrayUnstack_2/TensorArrayScatter/TensorArrayScatterV3"
  op: "TensorArrayScatterV3"
  input: "map/TensorArray_2"
  input: "map/TensorArrayUnstack_2/range"
  input: "IteratorGetNext:2"
  input: "map/TensorArray_2:1"
  device: "/device:CPU:0"
  attr {
    key: "T"
    value {
      type: DT_INT64
    }
  }
  attr {
    key: "_class"
    value {
      list {
        s: "loc:@IteratorGetNext"
      }
    }
  }
  attr {
    key: "_output_shapes"
    value {
      list {
        shape {
        }
      }
    }
  }
}
node {
  name: "map/TensorArrayUnstack_3/Shape"
  op: "Shape"
  input: "IteratorGetNext:3"
  attr {
    key: "T"
    value {
      type: DT_INT64
    }
  }
  attr {
    key: "_output_shapes"
    value {
      list {
        shape {
          dim {
            size: 1
          }
        }
      }
    }
  }
  attr {
    key: "out_type"
    value {
      type: DT_INT32
    }
  }
}
node {
  name: "map/TensorArrayUnstack_3/strided_slice/stack"
  op: "Const"
  attr {
    key: "_output_shapes"
    value {
      list {
        shape {
          dim {
            size: 1
          }
        }
      }
    }
  }
  attr {
    key: "dtype"
    value {
      type: DT_INT32
    }
  }
  attr {
    key: "value"
    value {
      tensor {
        dtype: DT_INT32
        tensor_shape {
          dim {
            size: 1
          }
        }
        int_val: 0
      }
    }
  }
}
node {
  name: "map/TensorArrayUnstack_3/strided_slice/stack_1"
  op: "Const"
  attr {
    key: "_output_shapes"
    value {
      list {
        shape {
          dim {
            size: 1
          }
        }
      }
    }
  }
  attr {
    key: "dtype"
    value {
      type: DT_INT32
    }
  }
  attr {
    key: "value"
    value {
      tensor {
        dtype: DT_INT32
        tensor_shape {
          dim {
            size: 1
          }
        }
        int_val: 1
      }
    }
  }
}
node {
  name: "map/TensorArrayUnstack_3/strided_slice/stack_2"
  op: "Const"
  attr {
    key: "_output_shapes"
    value {
      list {
        shape {
          dim {
            size: 1
          }
        }
      }
    }
  }
  attr {
    key: "dtype"
    value {
      type: DT_INT32
    }
  }
  attr {
    key: "value"
    value {
      tensor {
        dtype: DT_INT32
        tensor_shape {
          dim {
            size: 1
          }
        }
        int_val: 1
      }
    }
  }
}
node {
  name: "map/TensorArrayUnstack_3/strided_slice"
  op: "StridedSlice"
  input: "map/TensorArrayUnstack_3/Shape"
  input: "map/TensorArrayUnstack_3/strided_slice/stack"
  input: "map/TensorArrayUnstack_3/strided_slice/stack_1"
  input: "map/TensorArrayUnstack_3/strided_slice/stack_2"
  attr {
    key: "Index"
    value {
      type: DT_INT32
    }
  }
  attr {
    key: "T"
    value {
      type: DT_INT32
    }
  }
  attr {
    key: "_output_shapes"
    value {
      list {
        shape {
        }
      }
    }
  }
  attr {
    key: "begin_mask"
    value {
      i: 0
    }
  }
  attr {
    key: "ellipsis_mask"
    value {
      i: 0
    }
  }
  attr {
    key: "end_mask"
    value {
      i: 0
    }
  }
  attr {
    key: "new_axis_mask"
    value {
      i: 0
    }
  }
  attr {
    key: "shrink_axis_mask"
    value {
      i: 1
    }
  }
}
node {
  name: "map/TensorArrayUnstack_3/range/start"
  op: "Const"
  attr {
    key: "_output_shapes"
    value {
      list {
        shape {
        }
      }
    }
  }
  attr {
    key: "dtype"
    value {
      type: DT_INT32
    }
  }
  attr {
    key: "value"
    value {
      tensor {
        dtype: DT_INT32
        tensor_shape {
        }
        int_val: 0
      }
    }
  }
}
node {
  name: "map/TensorArrayUnstack_3/range/delta"
  op: "Const"
  attr {
    key: "_output_shapes"
    value {
      list {
        shape {
        }
      }
    }
  }
  attr {
    key: "dtype"
    value {
      type: DT_INT32
    }
  }
  attr {
    key: "value"
    value {
      tensor {
        dtype: DT_INT32
        tensor_shape {
        }
        int_val: 1
      }
    }
  }
}
node {
  name: "map/TensorArrayUnstack_3/range"
  op: "Range"
  input: "map/TensorArrayUnstack_3/range/start"
  input: "map/TensorArrayUnstack_3/strided_slice"
  input: "map/TensorArrayUnstack_3/range/delta"
  attr {
    key: "Tidx"
    value {
      type: DT_INT32
    }
  }
  attr {
    key: "_output_shapes"
    value {
      list {
        shape {
          dim {
            size: -1
          }
        }
      }
    }
  }
}
node {
  name: "map/TensorArrayUnstack_3/TensorArrayScatter/TensorArrayScatterV3"
  op: "TensorArrayScatterV3"
  input: "map/TensorArray_3"
  input: "map/TensorArrayUnstack_3/range"
  input: "IteratorGetNext:3"
  input: "map/TensorArray_3:1"
  device: "/device:CPU:0"
  attr {
    key: "T"
    value {
      type: DT_INT64
    }
  }
  attr {
    key: "_class"
    value {
      list {
        s: "loc:@IteratorGetNext"
      }
    }
  }
  attr {
    key: "_output_shapes"
    value {
      list {
        shape {
        }
      }
    }
  }
}
node {
  name: "map/TensorArrayUnstack_4/Shape"
  op: "Shape"
  input: "IteratorGetNext:4"
  attr {
    key: "T"
    value {
      type: DT_INT64
    }
  }
  attr {
    key: "_output_shapes"
    value {
      list {
        shape {
          dim {
            size: 2
          }
        }
      }
    }
  }
  attr {
    key: "out_type"
    value {
      type: DT_INT32
    }
  }
}
node {
  name: "map/TensorArrayUnstack_4/strided_slice/stack"
  op: "Const"
  attr {
    key: "_output_shapes"
    value {
      list {
        shape {
          dim {
            size: 1
          }
        }
      }
    }
  }
  attr {
    key: "dtype"
    value {
      type: DT_INT32
    }
  }
  attr {
    key: "value"
    value {
      tensor {
        dtype: DT_INT32
        tensor_shape {
          dim {
            size: 1
          }
        }
        int_val: 0
      }
    }
  }
}
node {
  name: "map/TensorArrayUnstack_4/strided_slice/stack_1"
  op: "Const"
  attr {
    key: "_output_shapes"
    value {
      list {
        shape {
          dim {
            size: 1
          }
        }
      }
    }
  }
  attr {
    key: "dtype"
    value {
      type: DT_INT32
    }
  }
  attr {
    key: "value"
    value {
      tensor {
        dtype: DT_INT32
        tensor_shape {
          dim {
            size: 1
          }
        }
        int_val: 1
      }
    }
  }
}
node {
  name: "map/TensorArrayUnstack_4/strided_slice/stack_2"
  op: "Const"
  attr {
    key: "_output_shapes"
    value {
      list {
        shape {
          dim {
            size: 1
          }
        }
      }
    }
  }
  attr {
    key: "dtype"
    value {
      type: DT_INT32
    }
  }
  attr {
    key: "value"
    value {
      tensor {
        dtype: DT_INT32
        tensor_shape {
          dim {
            size: 1
          }
        }
        int_val: 1
      }
    }
  }
}
node {
  name: "map/TensorArrayUnstack_4/strided_slice"
  op: "StridedSlice"
  input: "map/TensorArrayUnstack_4/Shape"
  input: "map/TensorArrayUnstack_4/strided_slice/stack"
  input: "map/TensorArrayUnstack_4/strided_slice/stack_1"
  input: "map/TensorArrayUnstack_4/strided_slice/stack_2"
  attr {
    key: "Index"
    value {
      type: DT_INT32
    }
  }
  attr {
    key: "T"
    value {
      type: DT_INT32
    }
  }
  attr {
    key: "_output_shapes"
    value {
      list {
        shape {
        }
      }
    }
  }
  attr {
    key: "begin_mask"
    value {
      i: 0
    }
  }
  attr {
    key: "ellipsis_mask"
    value {
      i: 0
    }
  }
  attr {
    key: "end_mask"
    value {
      i: 0
    }
  }
  attr {
    key: "new_axis_mask"
    value {
      i: 0
    }
  }
  attr {
    key: "shrink_axis_mask"
    value {
      i: 1
    }
  }
}
node {
  name: "map/TensorArrayUnstack_4/range/start"
  op: "Const"
  attr {
    key: "_output_shapes"
    value {
      list {
        shape {
        }
      }
    }
  }
  attr {
    key: "dtype"
    value {
      type: DT_INT32
    }
  }
  attr {
    key: "value"
    value {
      tensor {
        dtype: DT_INT32
        tensor_shape {
        }
        int_val: 0
      }
    }
  }
}
node {
  name: "map/TensorArrayUnstack_4/range/delta"
  op: "Const"
  attr {
    key: "_output_shapes"
    value {
      list {
        shape {
        }
      }
    }
  }
  attr {
    key: "dtype"
    value {
      type: DT_INT32
    }
  }
  attr {
    key: "value"
    value {
      tensor {
        dtype: DT_INT32
        tensor_shape {
        }
        int_val: 1
      }
    }
  }
}
node {
  name: "map/TensorArrayUnstack_4/range"
  op: "Range"
  input: "map/TensorArrayUnstack_4/range/start"
  input: "map/TensorArrayUnstack_4/strided_slice"
  input: "map/TensorArrayUnstack_4/range/delta"
  attr {
    key: "Tidx"
    value {
      type: DT_INT32
    }
  }
  attr {
    key: "_output_shapes"
    value {
      list {
        shape {
          dim {
            size: -1
          }
        }
      }
    }
  }
}
node {
  name: "map/TensorArrayUnstack_4/TensorArrayScatter/TensorArrayScatterV3"
  op: "TensorArrayScatterV3"
  input: "map/TensorArray_4"
  input: "map/TensorArrayUnstack_4/range"
  input: "IteratorGetNext:4"
  input: "map/TensorArray_4:1"
  device: "/device:CPU:0"
  attr {
    key: "T"
    value {
      type: DT_INT64
    }
  }
  attr {
    key: "_class"
    value {
      list {
        s: "loc:@IteratorGetNext"
      }
    }
  }
  attr {
    key: "_output_shapes"
    value {
      list {
        shape {
        }
      }
    }
  }
}
node {
  name: "map/TensorArrayUnstack_5/Shape"
  op: "Shape"
  input: "IteratorGetNext:5"
  attr {
    key: "T"
    value {
      type: DT_INT64
    }
  }
  attr {
    key: "_output_shapes"
    value {
      list {
        shape {
          dim {
            size: 2
          }
        }
      }
    }
  }
  attr {
    key: "out_type"
    value {
      type: DT_INT32
    }
  }
}
node {
  name: "map/TensorArrayUnstack_5/strided_slice/stack"
  op: "Const"
  attr {
    key: "_output_shapes"
    value {
      list {
        shape {
          dim {
            size: 1
          }
        }
      }
    }
  }
  attr {
    key: "dtype"
    value {
      type: DT_INT32
    }
  }
  attr {
    key: "value"
    value {
      tensor {
        dtype: DT_INT32
        tensor_shape {
          dim {
            size: 1
          }
        }
        int_val: 0
      }
    }
  }
}
node {
  name: "map/TensorArrayUnstack_5/strided_slice/stack_1"
  op: "Const"
  attr {
    key: "_output_shapes"
    value {
      list {
        shape {
          dim {
            size: 1
          }
        }
      }
    }
  }
  attr {
    key: "dtype"
    value {
      type: DT_INT32
    }
  }
  attr {
    key: "value"
    value {
      tensor {
        dtype: DT_INT32
        tensor_shape {
          dim {
            size: 1
          }
        }
        int_val: 1
      }
    }
  }
}
node {
  name: "map/TensorArrayUnstack_5/strided_slice/stack_2"
  op: "Const"
  attr {
    key: "_output_shapes"
    value {
      list {
        shape {
          dim {
            size: 1
          }
        }
      }
    }
  }
  attr {
    key: "dtype"
    value {
      type: DT_INT32
    }
  }
  attr {
    key: "value"
    value {
      tensor {
        dtype: DT_INT32
        tensor_shape {
          dim {
            size: 1
          }
        }
        int_val: 1
      }
    }
  }
}
node {
  name: "map/TensorArrayUnstack_5/strided_slice"
  op: "StridedSlice"
  input: "map/TensorArrayUnstack_5/Shape"
  input: "map/TensorArrayUnstack_5/strided_slice/stack"
  input: "map/TensorArrayUnstack_5/strided_slice/stack_1"
  input: "map/TensorArrayUnstack_5/strided_slice/stack_2"
  attr {
    key: "Index"
    value {
      type: DT_INT32
    }
  }
  attr {
    key: "T"
    value {
      type: DT_INT32
    }
  }
  attr {
    key: "_output_shapes"
    value {
      list {
        shape {
        }
      }
    }
  }
  attr {
    key: "begin_mask"
    value {
      i: 0
    }
  }
  attr {
    key: "ellipsis_mask"
    value {
      i: 0
    }
  }
  attr {
    key: "end_mask"
    value {
      i: 0
    }
  }
  attr {
    key: "new_axis_mask"
    value {
      i: 0
    }
  }
  attr {
    key: "shrink_axis_mask"
    value {
      i: 1
    }
  }
}
node {
  name: "map/TensorArrayUnstack_5/range/start"
  op: "Const"
  attr {
    key: "_output_shapes"
    value {
      list {
        shape {
        }
      }
    }
  }
  attr {
    key: "dtype"
    value {
      type: DT_INT32
    }
  }
  attr {
    key: "value"
    value {
      tensor {
        dtype: DT_INT32
        tensor_shape {
        }
        int_val: 0
      }
    }
  }
}
node {
  name: "map/TensorArrayUnstack_5/range/delta"
  op: "Const"
  attr {
    key: "_output_shapes"
    value {
      list {
        shape {
        }
      }
    }
  }
  attr {
    key: "dtype"
    value {
      type: DT_INT32
    }
  }
  attr {
    key: "value"
    value {
      tensor {
        dtype: DT_INT32
        tensor_shape {
        }
        int_val: 1
      }
    }
  }
}
node {
  name: "map/TensorArrayUnstack_5/range"
  op: "Range"
  input: "map/TensorArrayUnstack_5/range/start"
  input: "map/TensorArrayUnstack_5/strided_slice"
  input: "map/TensorArrayUnstack_5/range/delta"
  attr {
    key: "Tidx"
    value {
      type: DT_INT32
    }
  }
  attr {
    key: "_output_shapes"
    value {
      list {
        shape {
          dim {
            size: -1
          }
        }
      }
    }
  }
}
node {
  name: "map/TensorArrayUnstack_5/TensorArrayScatter/TensorArrayScatterV3"
  op: "TensorArrayScatterV3"
  input: "map/TensorArray_5"
  input: "map/TensorArrayUnstack_5/range"
  input: "IteratorGetNext:5"
  input: "map/TensorArray_5:1"
  device: "/device:CPU:0"
  attr {
    key: "T"
    value {
      type: DT_INT64
    }
  }
  attr {
    key: "_class"
    value {
      list {
        s: "loc:@IteratorGetNext"
      }
    }
  }
  attr {
    key: "_output_shapes"
    value {
      list {
        shape {
        }
      }
    }
  }
}
node {
  name: "map/TensorArrayUnstack_6/Shape"
  op: "Shape"
  input: "IteratorGetNext:6"
  attr {
    key: "T"
    value {
      type: DT_FLOAT
    }
  }
  attr {
    key: "_output_shapes"
    value {
      list {
        shape {
          dim {
            size: 2
          }
        }
      }
    }
  }
  attr {
    key: "out_type"
    value {
      type: DT_INT32
    }
  }
}
node {
  name: "map/TensorArrayUnstack_6/strided_slice/stack"
  op: "Const"
  attr {
    key: "_output_shapes"
    value {
      list {
        shape {
          dim {
            size: 1
          }
        }
      }
    }
  }
  attr {
    key: "dtype"
    value {
      type: DT_INT32
    }
  }
  attr {
    key: "value"
    value {
      tensor {
        dtype: DT_INT32
        tensor_shape {
          dim {
            size: 1
          }
        }
        int_val: 0
      }
    }
  }
}
node {
  name: "map/TensorArrayUnstack_6/strided_slice/stack_1"
  op: "Const"
  attr {
    key: "_output_shapes"
    value {
      list {
        shape {
          dim {
            size: 1
          }
        }
      }
    }
  }
  attr {
    key: "dtype"
    value {
      type: DT_INT32
    }
  }
  attr {
    key: "value"
    value {
      tensor {
        dtype: DT_INT32
        tensor_shape {
          dim {
            size: 1
          }
        }
        int_val: 1
      }
    }
  }
}
node {
  name: "map/TensorArrayUnstack_6/strided_slice/stack_2"
  op: "Const"
  attr {
    key: "_output_shapes"
    value {
      list {
        shape {
          dim {
            size: 1
          }
        }
      }
    }
  }
  attr {
    key: "dtype"
    value {
      type: DT_INT32
    }
  }
  attr {
    key: "value"
    value {
      tensor {
        dtype: DT_INT32
        tensor_shape {
          dim {
            size: 1
          }
        }
        int_val: 1
      }
    }
  }
}
node {
  name: "map/TensorArrayUnstack_6/strided_slice"
  op: "StridedSlice"
  input: "map/TensorArrayUnstack_6/Shape"
  input: "map/TensorArrayUnstack_6/strided_slice/stack"
  input: "map/TensorArrayUnstack_6/strided_slice/stack_1"
  input: "map/TensorArrayUnstack_6/strided_slice/stack_2"
  attr {
    key: "Index"
    value {
      type: DT_INT32
    }
  }
  attr {
    key: "T"
    value {
      type: DT_INT32
    }
  }
  attr {
    key: "_output_shapes"
    value {
      list {
        shape {
        }
      }
    }
  }
  attr {
    key: "begin_mask"
    value {
      i: 0
    }
  }
  attr {
    key: "ellipsis_mask"
    value {
      i: 0
    }
  }
  attr {
    key: "end_mask"
    value {
      i: 0
    }
  }
  attr {
    key: "new_axis_mask"
    value {
      i: 0
    }
  }
  attr {
    key: "shrink_axis_mask"
    value {
      i: 1
    }
  }
}
node {
  name: "map/TensorArrayUnstack_6/range/start"
  op: "Const"
  attr {
    key: "_output_shapes"
    value {
      list {
        shape {
        }
      }
    }
  }
  attr {
    key: "dtype"
    value {
      type: DT_INT32
    }
  }
  attr {
    key: "value"
    value {
      tensor {
        dtype: DT_INT32
        tensor_shape {
        }
        int_val: 0
      }
    }
  }
}
node {
  name: "map/TensorArrayUnstack_6/range/delta"
  op: "Const"
  attr {
    key: "_output_shapes"
    value {
      list {
        shape {
        }
      }
    }
  }
  attr {
    key: "dtype"
    value {
      type: DT_INT32
    }
  }
  attr {
    key: "value"
    value {
      tensor {
        dtype: DT_INT32
        tensor_shape {
        }
        int_val: 1
…
            string_val: "./nsfnet/50_nodes_route/tfrecords/train/results_synth50_15_AP_k_9.tfrecords"
            string_val: "./nsfnet/50_nodes_route/tfrecords/train/results_synth50_9_AP_k_100.tfrecords"
            string_val: "./nsfnet/50_nodes_route/tfrecords/train/results_synth50_9_AP_k_103.tfrecords"
            string_val: "./nsfnet/50_nodes_route/tfrecords/train/results_synth50_9_AP_k_104.tfrecords"
            string_val: "./nsfnet/50_nodes_route/tfrecords/train/results_synth50_9_AP_k_105.tfrecords"
            string_val: "./nsfnet/50_nodes_route/tfrecords/train/results_synth50_9_AP_k_106.tfrecords"
            string_val: "./nsfnet/50_nodes_route/tfrecords/train/results_synth50_9_AP_k_108.tfrecords"
            string_val: "./nsfnet/50_nodes_route/tfrecords/train/results_synth50_9_AP_k_109.tfrecords"
            string_val: "./nsfnet/50_nodes_route/tfrecords/train/results_synth50_9_AP_k_10.tfrecords"
            string_val: "./nsfnet/50_nodes_route/tfrecords/train/results_synth50_9_AP_k_110.tfrecords"
            string_val: "./nsfnet/50_nodes_route/tfrecords/train/results_synth50_9_AP_k_111.tfrecords"
            string_val: "./nsfnet/50_nodes_route/tfrecords/train/results_synth50_9_AP_k_112.tfrecords"
            string_val: "./nsfnet/50_nodes_route/tfrecords/train/results_synth50_9_AP_k_113.tfrecords"
            string_val: "./nsfnet/50_nodes_route/tfrecords/train/results_synth50_9_AP_k_114.tfrecords"
            string_val: "./nsfnet/50_nodes_route/tfrecords/train/results_synth50_9_AP_k_115.tfrecords"
            string_val: "./nsfnet/50_nodes_route/tfrecords/train/results_synth50_9_AP_k_116.tfrecords"
            string_val: "./nsfnet/50_nodes_route/tfrecords/train/results_synth50_9_AP_k_11.tfrecords"
            string_val: "./nsfnet/50_nodes_route/tfrecords/train/results_synth50_9_AP_k_121.tfrecords"
            string_val: "./nsfnet/50_nodes_route/tfrecords/train/results_synth50_9_AP_k_122.tfrecords"
            string_val: "./nsfnet/50_nodes_route/tfrecords/train/results_synth50_9_AP_k_123.tfrecords"
            string_val: "./nsfnet/50_nodes_route/tfrecords/train/results_synth50_9_AP_k_124.tfrecords"
            string_val: "./nsfnet/50_nodes_route/tfrecords/train/results_synth50_9_AP_k_125.tfrecords"
            string_val: "./nsfnet/50_nodes_route/tfrecords/train/results_synth50_9_AP_k_126.tfrecords"
            string_val: "./nsfnet/50_nodes_route/tfrecords/train/results_synth50_9_AP_k_128.tfrecords"
            string_val: "./nsfnet/50_nodes_route/tfrecords/train/results_synth50_9_AP_k_129.tfrecords"
            string_val: "./nsfnet/50_nodes_route/tfrecords/train/results_synth50_9_AP_k_12.tfrecords"
            string_val: "./nsfnet/50_nodes_route/tfrecords/train/results_synth50_9_AP_k_130.tfrecords"
            string_val: "./nsfnet/50_nodes_route/tfrecords/train/results_synth50_9_AP_k_131.tfrecords"
            string_val: "./nsfnet/50_nodes_route/tfrecords/train/results_synth50_9_AP_k_132.tfrecords"
            string_val: "./nsfnet/50_nodes_route/tfrecords/train/results_synth50_9_AP_k_133.tfrecords"
            string_val: "./nsfnet/50_nodes_route/tfrecords/train/results_synth50_9_AP_k_134.tfrecords"
            string_val: "./nsfnet/50_nodes_route/tfrecords/train/results_synth50_9_AP_k_135.tfrecords"
            string_val: "./nsfnet/50_nodes_route/tfrecords/train/results_synth50_9_AP_k_136.tfrecords"
            string_val: "./nsfnet/50_nodes_route/tfrecords/train/results_synth50_9_AP_k_137.tfrecords"
            string_val: "./nsfnet/50_nodes_route/tfrecords/train/results_synth50_9_AP_k_14.tfrecords"
            string_val: "./nsfnet/50_nodes_route/tfrecords/train/results_synth50_9_AP_k_16.tfrecords"
            string_val: "./nsfnet/50_nodes_route/tfrecords/train/results_synth50_9_AP_k_17.tfrecords"
            string_val: "./nsfnet/50_nodes_route/tfrecords/train/results_synth50_9_AP_k_18.tfrecords"
            string_val: "./nsfnet/50_nodes_route/tfrecords/train/results_synth50_9_AP_k_19.tfrecords"
            string_val: "./nsfnet/50_nodes_route/tfrecords/train/results_synth50_9_AP_k_1.tfrecords"
            string_val: "./nsfnet/50_nodes_route/tfrecords/train/results_synth50_9_AP_k_20.tfrecords"
            string_val: "./nsfnet/50_nodes_route/tfrecords/train/results_synth50_9_AP_k_22.tfrecords"
            string_val: "./nsfnet/50_nodes_route/tfrecords/train/results_synth50_9_AP_k_23.tfrecords"
            string_val: "./nsfnet/50_nodes_route/tfrecords/train/results_synth50_9_AP_k_27.tfrecords"
            string_val: "./nsfnet/50_nodes_route/tfrecords/train/results_synth50_9_AP_k_29.tfrecords"
            string_val: "./nsfnet/50_nodes_route/tfrecords/train/results_synth50_9_AP_k_2.tfrecords"
            string_val: "./nsfnet/50_nodes_route/tfrecords/train/results_synth50_9_AP_k_30.tfrecords"
            string_val: "./nsfnet/50_nodes_route/tfrecords/train/results_synth50_9_AP_k_31.tfrecords"
            string_val: "./nsfnet/50_nodes_route/tfrecords/train/results_synth50_9_AP_k_32.tfrecords"
            string_val: "./nsfnet/50_nodes_route/tfrecords/train/results_synth50_9_AP_k_33.tfrecords"
            string_val: "./nsfnet/50_nodes_route/tfrecords/train/results_synth50_9_AP_k_34.tfrecords"
            string_val: "./nsfnet/50_nodes_route/tfrecords/train/results_synth50_9_AP_k_35.tfrecords"
            string_val: "./nsfnet/50_nodes_route/tfrecords/train/results_synth50_9_AP_k_36.tfrecords"
            string_val: "./nsfnet/50_nodes_route/tfrecords/train/results_synth50_9_AP_k_38.tfrecords"
            string_val: "./nsfnet/50_nodes_route/tfrecords/train/results_synth50_9_AP_k_3.tfrecords"
            string_val: "./nsfnet/50_nodes_route/tfrecords/train/results_synth50_9_AP_k_40.tfrecords"
            string_val: "./nsfnet/50_nodes_route/tfrecords/train/results_synth50_9_AP_k_41.tfrecords"
            string_val: "./nsfnet/50_nodes_route/tfrecords/train/results_synth50_9_AP_k_42.tfrecords"
            string_val: "./nsfnet/50_nodes_route/tfrecords/train/results_synth50_9_AP_k_43.tfrecords"
            string_val: "./nsfnet/50_nodes_route/tfrecords/train/results_synth50_9_AP_k_44.tfrecords"
            string_val: "./nsfnet/50_nodes_route/tfrecords/train/results_synth50_9_AP_k_47.tfrecords"
            string_val: "./nsfnet/50_nodes_route/tfrecords/train/results_synth50_9_AP_k_49.tfrecords"
            string_val: "./nsfnet/50_nodes_route/tfrecords/train/results_synth50_9_AP_k_4.tfrecords"
            string_val: "./nsfnet/50_nodes_route/tfrecords/train/results_synth50_9_AP_k_50.tfrecords"
            string_val: "./nsfnet/50_nodes_route/tfrecords/train/results_synth50_9_AP_k_51.tfrecords"
            string_val: "./nsfnet/50_nodes_route/tfrecords/train/results_synth50_9_AP_k_52.tfrecords"
            string_val: "./nsfnet/50_nodes_route/tfrecords/train/results_synth50_9_AP_k_53.tfrecords"
            string_val: "./nsfnet/50_nodes_route/tfrecords/train/results_synth50_9_AP_k_54.tfrecords"
            string_val: "./nsfnet/50_nodes_route/tfrecords/train/results_synth50_9_AP_k_55.tfrecords"
            string_val: "./nsfnet/50_nodes_route/tfrecords/train/results_synth50_9_AP_k_56.tfrecords"
            string_val: "./nsfnet/50_nodes_route/tfrecords/train/results_synth50_9_AP_k_57.tfrecords"
            string_val: "./nsfnet/50_nodes_route/tfrecords/train/results_synth50_9_AP_k_58.tfrecords"
            string_val: "./nsfnet/50_nodes_route/tfrecords/train/results_synth50_9_AP_k_59.tfrecords"
            string_val: "./nsfnet/50_nodes_route/tfrecords/train/results_synth50_9_AP_k_5.tfrecords"
            string_val: "./nsfnet/50_nodes_route/tfrecords/train/results_synth50_9_AP_k_60.tfrecords"
            string_val: "./nsfnet/50_nodes_route/tfrecords/train/results_synth50_9_AP_k_63.tfrecords"
            string_val: "./nsfnet/50_nodes_route/tfrecords/train/results_synth50_9_AP_k_64.tfrecords"
            string_val: "./nsfnet/50_nodes_route/tfrecords/train/results_synth50_9_AP_k_65.tfrecords"
            string_val: "./nsfnet/50_nodes_route/tfrecords/train/results_synth50_9_AP_k_66.tfrecords"
            string_val: "./nsfnet/50_nodes_route/tfrecords/train/results_synth50_9_AP_k_68.tfrecords"
            string_val: "./nsfnet/50_nodes_route/tfrecords/train/results_synth50_9_AP_k_69.tfrecords"
            string_val: "./nsfnet/50_nodes_route/tfrecords/train/results_synth50_9_AP_k_6.tfrecords"
            string_val: "./nsfnet/50_nodes_route/tfrecords/train/results_synth50_9_AP_k_70.tfrecords"
            string_val: "./nsfnet/50_nodes_route/tfrecords/train/results_synth50_9_AP_k_73.tfrecords"
            string_val: "./nsfnet/50_nodes_route/tfrecords/train/results_synth50_9_AP_k_74.tfrecords"
            string_val: "./nsfnet/50_nodes_route/tfrecords/train/results_synth50_9_AP_k_75.tfrecords"
            string_val: "./nsfnet/50_nodes_route/tfrecords/train/results_synth50_9_AP_k_76.tfrecords"
            string_val: "./nsfnet/50_nodes_route/tfrecords/train/results_synth50_9_AP_k_77.tfrecords"
            string_val: "./nsfnet/50_nodes_route/tfrecords/train/results_synth50_9_AP_k_78.tfrecords"
            string_val: "./nsfnet/50_nodes_route/tfrecords/train/results_synth50_9_AP_k_79.tfrecords"
            string_val: "./nsfnet/50_nodes_route/tfrecords/train/results_synth50_9_AP_k_7.tfrecords"
            string_val: "./nsfnet/50_nodes_route/tfrecords/train/results_synth50_9_AP_k_80.tfrecords"
            string_val: "./nsfnet/50_nodes_route/tfrecords/train/results_synth50_9_AP_k_81.tfrecords"
            string_val: "./nsfnet/50_nodes_route/tfrecords/train/results_synth50_9_AP_k_82.tfrecords"
            string_val: "./nsfnet/50_nodes_route/tfrecords/train/results_synth50_9_AP_k_84.tfrecords"
            string_val: "./nsfnet/50_nodes_route/tfrecords/train/results_synth50_9_AP_k_85.tfrecords"
            string_val: "./nsfnet/50_nodes_route/tfrecords/train/results_synth50_9_AP_k_86.tfrecords"
            string_val: "./nsfnet/50_nodes_route/tfrecords/train/results_synth50_9_AP_k_87.tfrecords"
            string_val: "./nsfnet/50_nodes_route/tfrecords/train/results_synth50_9_AP_k_88.tfrecords"
            string_val: "./nsfnet/50_nodes_route/tfrecords/train/results_synth50_9_AP_k_8.tfrecords"
            string_val: "./nsfnet/50_nodes_route/tfrecords/train/results_synth50_9_AP_k_90.tfrecords"
            string_val: "./nsfnet/50_nodes_route/tfrecords/train/results_synth50_9_AP_k_91.tfrecords"
            string_val: "./nsfnet/50_nodes_route/tfrecords/train/results_synth50_9_AP_k_92.tfrecords"
            string_val: "./nsfnet/50_nodes_route/tfrecords/train/results_synth50_9_AP_k_93.tfrecords"
            string_val: "./nsfnet/50_nodes_route/tfrecords/train/results_synth50_9_AP_k_94.tfrecords"
            string_val: "./nsfnet/50_nodes_route/tfrecords/train/results_synth50_9_AP_k_95.tfrecords"
            string_val: "./nsfnet/50_nodes_route/tfrecords/train/results_synth50_9_AP_k_96.tfrecords"
            string_val: "./nsfnet/50_nodes_route/tfrecords/train/results_synth50_9_AP_k_97.tfrecords"
            string_val: "./nsfnet/50_nodes_route/tfrecords/train/results_synth50_9_AP_k_98.tfrecords"
            string_val: "./nsfnet/50_nodes_route/tfrecords/train/results_synth50_9_AP_k_99.tfrecords"
            string_val: "./nsfnet/50_nodes_route/tfrecords/train/results_synth50_9_AP_k_9.tfrecords"
          }
        }
      }
    }
    node_def {
      name: "TensorSliceDataset"
      op: "TensorSliceDataset"
      input: "TensorSliceDataset/tensors/component_0:output:0"
      device: "/device:CPU:0"
      attr {
        key: "Toutput_types"
        value {
          list {
            type: DT_STRING
          }
        }
      }
      attr {
        key: "output_shapes"
        value {
          list {
            shape {
            }
          }
        }
      }
    }
    node_def {
      name: "ShuffleDataset/buffer_size"
      op: "Const"
      device: "/device:CPU:0"
      attr {
        key: "dtype"
        value {
          type: DT_INT64
        }
      }
      attr {
        key: "value"
        value {
          tensor {
            dtype: DT_INT64
            tensor_shape {
            }
            int64_val: 331
          }
        }
      }
    }
    node_def {
      name: "ShuffleDataset/seed"
      op: "Const"
      device: "/device:CPU:0"
      attr {
        key: "dtype"
        value {
          type: DT_INT64
        }
      }
      attr {
        key: "value"
        value {
          tensor {
            dtype: DT_INT64
            tensor_shape {
            }
            int64_val: 0
          }
        }
      }
    }
    node_def {
      name: "ShuffleDataset/seed2"
      op: "Const"
      device: "/device:CPU:0"
      attr {
        key: "dtype"
        value {
          type: DT_INT64
        }
      }
      attr {
        key: "value"
        value {
          tensor {
            dtype: DT_INT64
            tensor_shape {
            }
            int64_val: 0
          }
        }
      }
    }
    node_def {
      name: "ShuffleDataset"
      op: "ShuffleDataset"
      input: "TensorSliceDataset:handle:0"
      input: "ShuffleDataset/buffer_size:output:0"
      input: "ShuffleDataset/seed:output:0"
      input: "ShuffleDataset/seed2:output:0"
      device: "/device:CPU:0"
      attr {
        key: "output_shapes"
        value {
          list {
            shape {
            }
          }
        }
      }
      attr {
        key: "output_types"
        value {
          list {
            type: DT_STRING
          }
        }
      }
      attr {
        key: "reshuffle_each_iteration"
        value {
          b: true
        }
      }
    }
    node_def {
      name: "ParallelInterleaveDataset/cycle_length"
      op: "Const"
      device: "/device:CPU:0"
      attr {
        key: "dtype"
        value {
          type: DT_INT64
        }
      }
      attr {
        key: "value"
        value {
          tensor {
            dtype: DT_INT64
            tensor_shape {
            }
            int64_val: 4
          }
        }
      }
    }
    node_def {
      name: "ParallelInterleaveDataset/block_length"
      op: "Const"
      device: "/device:CPU:0"
      attr {
        key: "dtype"
        value {
          type: DT_INT64
        }
      }
      attr {
        key: "value"
        value {
          tensor {
            dtype: DT_INT64
            tensor_shape {
            }
            int64_val: 1
          }
        }
      }
    }
    node_def {
      name: "ParallelInterleaveDataset/sloppy"
      op: "Const"
      device: "/device:CPU:0"
      attr {
        key: "dtype"
        value {
          type: DT_BOOL
        }
      }
      attr {
        key: "value"
        value {
          tensor {
            dtype: DT_BOOL
            tensor_shape {
            }
            bool_val: false
          }
        }
      }
    }
    node_def {
      name: "ParallelInterleaveDataset/buffer_output_elements"
      op: "Const"
      device: "/device:CPU:0"
      attr {
        key: "dtype"
        value {
          type: DT_INT64
        }
      }
      attr {
        key: "value"
        value {
          tensor {
            dtype: DT_INT64
            tensor_shape {
            }
            int64_val: 2
          }
        }
      }
    }
    node_def {
      name: "ParallelInterleaveDataset/prefetch_input_elements"
      op: "Const"
      device: "/device:CPU:0"
      attr {
        key: "dtype"
        value {
          type: DT_INT64
        }
      }
      attr {
        key: "value"
        value {
          tensor {
            dtype: DT_INT64
            tensor_shape {
            }
            int64_val: 8
          }
        }
      }
    }
    node_def {
      name: "ParallelInterleaveDataset"
      op: "ParallelInterleaveDataset"
      input: "ShuffleDataset:handle:0"
      input: "ParallelInterleaveDataset/cycle_length:output:0"
      input: "ParallelInterleaveDataset/block_length:output:0"
      input: "ParallelInterleaveDataset/sloppy:output:0"
      input: "ParallelInterleaveDataset/buffer_output_elements:output:0"
      input: "ParallelInterleaveDataset/prefetch_input_elements:output:0"
      device: "/device:CPU:0"
      attr {
        key: "Targuments"
        value {
          list {
          }
        }
      }
      attr {
        key: "f"
        value {
          func {
            name: "tf_data_structured_function_wrapper_rn3e6kArW78"
          }
        }
      }
      attr {
        key: "output_shapes"
        value {
          list {
            shape {
            }
          }
        }
      }
      attr {
        key: "output_types"
        value {
          list {
            type: DT_STRING
          }
        }
      }
    }
    node_def {
      name: "ShuffleAndRepeatDataset/buffer_size_1"
      op: "Const"
      device: "/device:CPU:0"
      attr {
        key: "dtype"
        value {
          type: DT_INT64
        }
      }
      attr {
        key: "value"
        value {
          tensor {
            dtype: DT_INT64
            tensor_shape {
            }
            int64_val: 10000
          }
        }
      }
    }
    node_def {
      name: "ShuffleAndRepeatDataset/seed_1"
      op: "Const"
      device: "/device:CPU:0"
      attr {
        key: "dtype"
        value {
          type: DT_INT64
        }
      }
      attr {
        key: "value"
        value {
          tensor {
            dtype: DT_INT64
            tensor_shape {
            }
            int64_val: 0
          }
        }
      }
    }
    node_def {
      name: "ShuffleAndRepeatDataset/seed2_1"
      op: "Const"
      device: "/device:CPU:0"
      attr {
        key: "dtype"
        value {
          type: DT_INT64
        }
      }
      attr {
        key: "value"
        value {
          tensor {
            dtype: DT_INT64
            tensor_shape {
            }
            int64_val: 0
          }
        }
      }
    }
    node_def {
      name: "ShuffleAndRepeatDataset/count"
      op: "Const"
      device: "/device:CPU:0"
      attr {
        key: "dtype"
        value {
          type: DT_INT64
        }
      }
      attr {
        key: "value"
        value {
          tensor {
            dtype: DT_INT64
            tensor_shape {
            }
            int64_val: -1
          }
        }
      }
    }
    node_def {
      name: "ShuffleAndRepeatDataset"
      op: "ShuffleAndRepeatDataset"
      input: "ParallelInterleaveDataset:handle:0"
      input: "ShuffleAndRepeatDataset/buffer_size_1:output:0"
      input: "ShuffleAndRepeatDataset/seed_1:output:0"
      input: "ShuffleAndRepeatDataset/seed2_1:output:0"
      input: "ShuffleAndRepeatDataset/count:output:0"
      device: "/device:CPU:0"
      attr {
        key: "output_shapes"
        value {
          list {
            shape {
            }
          }
        }
      }
      attr {
        key: "output_types"
        value {
          list {
            type: DT_STRING
          }
        }
      }
    }
    node_def {
      name: "ParallelMapDataset/num_parallel_calls"
      op: "Const"
      device: "/device:CPU:0"
      attr {
        key: "dtype"
        value {
          type: DT_INT32
        }
      }
      attr {
        key: "value"
        value {
          tensor {
            dtype: DT_INT32
            tensor_shape {
            }
            int_val: 2
          }
        }
      }
    }
    node_def {
      name: "ParallelMapDataset"
      op: "ParallelMapDataset"
      input: "ShuffleAndRepeatDataset:handle:0"
      input: "ParallelMapDataset/num_parallel_calls:output:0"
      device: "/device:CPU:0"
      attr {
        key: "Targuments"
        value {
          list {
          }
        }
      }
      attr {
        key: "f"
        value {
          func {
            name: "tf_data_structured_function_wrapper_TcbQUifozpg"
          }
        }
      }
      attr {
        key: "output_shapes"
        value {
          list {
            shape {
              dim {
                size: -1
              }
            }
            shape {
            }
            shape {
            }
            shape {
            }
            shape {
              dim {
                size: -1
              }
            }
            shape {
              dim {
                size: -1
              }
            }
            shape {
              dim {
                size: -1
              }
            }
            shape {
              dim {
                size: -1
              }
            }
          }
        }
      }
      attr {
        key: "output_types"
        value {
          list {
            type: DT_INT64
            type: DT_INT64
            type: DT_INT64
            type: DT_INT64
            type: DT_INT64
            type: DT_INT64
            type: DT_FLOAT
            type: DT_FLOAT
          }
        }
      }
      attr {
        key: "use_inter_op_parallelism"
        value {
          b: true
        }
      }
    }
    node_def {
      name: "PaddedBatchDatasetV2/batch_size"
      op: "Const"
      device: "/device:CPU:0"
      attr {
        key: "dtype"
        value {
          type: DT_INT64
        }
      }
      attr {
        key: "value"
        value {
          tensor {
            dtype: DT_INT64
            tensor_shape {
            }
            int64_val: 32
          }
        }
      }
    }
    node_def {
      name: "PaddedBatchDatasetV2/Const"
      op: "Const"
      device: "/device:CPU:0"
      attr {
        key: "dtype"
        value {
          type: DT_INT64
        }
      }
      attr {
        key: "value"
        value {
          tensor {
            dtype: DT_INT64
            tensor_shape {
              dim {
                size: 1
              }
            }
            int64_val: -1
          }
        }
      }
    }
    node_def {
      name: "PaddedBatchDatasetV2/Const_1"
      op: "Const"
      device: "/device:CPU:0"
      attr {
        key: "dtype"
        value {
          type: DT_INT64
        }
      }
      attr {
        key: "value"
        value {
          tensor {
            dtype: DT_INT64
            tensor_shape {
              dim {
              }
            }
          }
        }
      }
    }
    node_def {
      name: "PaddedBatchDatasetV2/Const_2"
      op: "Const"
      device: "/device:CPU:0"
      attr {
        key: "dtype"
        value {
          type: DT_INT64
        }
      }
      attr {
        key: "value"
        value {
          tensor {
            dtype: DT_INT64
            tensor_shape {
              dim {
              }
            }
          }
        }
      }
    }
    node_def {
      name: "PaddedBatchDatasetV2/Const_3"
      op: "Const"
      device: "/device:CPU:0"
      attr {
        key: "dtype"
        value {
          type: DT_INT64
        }
      }
      attr {
        key: "value"
        value {
          tensor {
            dtype: DT_INT64
            tensor_shape {
              dim {
              }
            }
          }
        }
      }
    }
    node_def {
      name: "PaddedBatchDatasetV2/Const_4"
      op: "Const"
      device: "/device:CPU:0"
      attr {
        key: "dtype"
        value {
          type: DT_INT64
        }
      }
      attr {
        key: "value"
        value {
          tensor {
            dtype: DT_INT64
            tensor_shape {
              dim {
                size: 1
              }
            }
            int64_val: -1
          }
        }
      }
    }
    node_def {
      name: "PaddedBatchDatasetV2/Const_5"
      op: "Const"
      device: "/device:CPU:0"
      attr {
        key: "dtype"
        value {
          type: DT_INT64
        }
      }
      attr {
        key: "value"
        value {
          tensor {
            dtype: DT_INT64
            tensor_shape {
              dim {
                size: 1
              }
            }
            int64_val: -1
          }
        }
      }
    }
    node_def {
      name: "PaddedBatchDatasetV2/Const_6"
      op: "Const"
      device: "/device:CPU:0"
      attr {
        key: "dtype"
        value {
          type: DT_INT64
        }
      }
      attr {
        key: "value"
        value {
          tensor {
            dtype: DT_INT64
            tensor_shape {
              dim {
                size: 1
              }
            }
            int64_val: 2450
          }
        }
      }
    }
    node_def {
      name: "PaddedBatchDatasetV2/Const_7"
      op: "Const"
      device: "/device:CPU:0"
      attr {
        key: "dtype"
        value {
          type: DT_INT64
        }
      }
      attr {
        key: "value"
        value {
          tensor {
            dtype: DT_INT64
            tensor_shape {
              dim {
                size: 1
              }
            }
            int64_val: 2450
          }
        }
      }
    }
    node_def {
      name: "PaddedBatchDatasetV2/padding_value"
      op: "Const"
      device: "/device:CPU:0"
      attr {
        key: "dtype"
        value {
          type: DT_INT64
        }
      }
      attr {
        key: "value"
        value {
          tensor {
            dtype: DT_INT64
            tensor_shape {
            }
            int64_val: 0
          }
        }
      }
    }
    node_def {
      name: "PaddedBatchDatasetV2/padding_value_1"
      op: "Const"
      device: "/device:CPU:0"
      attr {
        key: "dtype"
        value {
          type: DT_INT64
        }
      }
      attr {
        key: "value"
        value {
          tensor {
            dtype: DT_INT64
            tensor_shape {
            }
            int64_val: 0
          }
        }
      }
    }
    node_def {
      name: "PaddedBatchDatasetV2/padding_value_2"
      op: "Const"
      device: "/device:CPU:0"
      attr {
        key: "dtype"
        value {
          type: DT_INT64
        }
      }
      attr {
        key: "value"
        value {
          tensor {
            dtype: DT_INT64
            tensor_shape {
            }
            int64_val: 0
          }
        }
      }
    }
    node_def {
      name: "PaddedBatchDatasetV2/padding_value_3"
      op: "Const"
      device: "/device:CPU:0"
      attr {
        key: "dtype"
        value {
          type: DT_INT64
        }
      }
      attr {
        key: "value"
        value {
          tensor {
            dtype: DT_INT64
            tensor_shape {
            }
            int64_val: 0
          }
        }
      }
    }
    node_def {
      name: "PaddedBatchDatasetV2/padding_value_4"
      op: "Const"
      device: "/device:CPU:0"
      attr {
        key: "dtype"
        value {
          type: DT_INT64
        }
      }
      attr {
        key: "value"
        value {
          tensor {
            dtype: DT_INT64
            tensor_shape {
            }
            int64_val: 0
          }
        }
      }
    }
    node_def {
      name: "PaddedBatchDatasetV2/padding_value_5"
      op: "Const"
      device: "/device:CPU:0"
      attr {
        key: "dtype"
        value {
          type: DT_INT64
        }
      }
      attr {
        key: "value"
        value {
          tensor {
            dtype: DT_INT64
            tensor_shape {
            }
            int64_val: 0
          }
        }
      }
    }
    node_def {
      name: "PaddedBatchDatasetV2/padding_value_6"
      op: "Const"
      device: "/device:CPU:0"
      attr {
        key: "dtype"
        value {
          type: DT_FLOAT
        }
      }
      attr {
        key: "value"
        value {
          tensor {
            dtype: DT_FLOAT
            tensor_shape {
            }
            float_val: 0.0
          }
        }
      }
    }
    node_def {
      name: "PaddedBatchDatasetV2/padding_value_7"
      op: "Const"
      device: "/device:CPU:0"
      attr {
        key: "dtype"
        value {
          type: DT_FLOAT
        }
      }
      attr {
        key: "value"
        value {
          tensor {
            dtype: DT_FLOAT
            tensor_shape {
            }
            float_val: 0.0
          }
        }
      }
    }
    node_def {
      name: "PaddedBatchDatasetV2/drop_remainder"
      op: "Const"
      device: "/device:CPU:0"
      attr {
        key: "dtype"
        value {
          type: DT_BOOL
        }
      }
      attr {
        key: "value"
        value {
          tensor {
            dtype: DT_BOOL
            tensor_shape {
            }
            bool_val: false
          }
        }
      }
    }
    node_def {
      name: "PaddedBatchDatasetV2"
      op: "PaddedBatchDatasetV2"
      input: "ParallelMapDataset:handle:0"
      input: "PaddedBatchDatasetV2/batch_size:output:0"
      input: "PaddedBatchDatasetV2/Const:output:0"
      input: "PaddedBatchDatasetV2/Const_1:output:0"
      input: "PaddedBatchDatasetV2/Const_2:output:0"
      input: "PaddedBatchDatasetV2/Const_3:output:0"
      input: "PaddedBatchDatasetV2/Const_4:output:0"
      input: "PaddedBatchDatasetV2/Const_5:output:0"
      input: "PaddedBatchDatasetV2/Const_6:output:0"
      input: "PaddedBatchDatasetV2/Const_7:output:0"
      input: "PaddedBatchDatasetV2/padding_value:output:0"
      input: "PaddedBatchDatasetV2/padding_value_1:output:0"
      input: "PaddedBatchDatasetV2/padding_value_2:output:0"
      input: "PaddedBatchDatasetV2/padding_value_3:output:0"
      input: "PaddedBatchDatasetV2/padding_value_4:output:0"
      input: "PaddedBatchDatasetV2/padding_value_5:output:0"
      input: "PaddedBatchDatasetV2/padding_value_6:output:0"
      input: "PaddedBatchDatasetV2/padding_value_7:output:0"
      input: "PaddedBatchDatasetV2/drop_remainder:output:0"
      device: "/device:CPU:0"
      attr {
        key: "N"
        value {
          i: 8
        }
      }
      attr {
        key: "Toutput_types"
        value {
          list {
            type: DT_INT64
            type: DT_INT64
            type: DT_INT64
            type: DT_INT64
            type: DT_INT64
            type: DT_INT64
            type: DT_FLOAT
            type: DT_FLOAT
          }
        }
      }
      attr {
        key: "output_shapes"
        value {
          list {
            shape {
              dim {
                size: -1
              }
              dim {
                size: -1
              }
            }
            shape {
              dim {
                size: -1
              }
            }
            shape {
              dim {
                size: -1
              }
            }
            shape {
              dim {
                size: -1
              }
            }
            shape {
              dim {
                size: -1
              }
              dim {
                size: -1
              }
            }
            shape {
              dim {
                size: -1
              }
              dim {
                size: -1
              }
            }
            shape {
              dim {
                size: -1
              }
              dim {
                size: 2450
              }
            }
            shape {
              dim {
                size: -1
              }
              dim {
                size: 2450
              }
            }
          }
        }
      }
    }
    node_def {
      name: "PrefetchDataset/buffer_size_2"
      op: "Const"
      device: "/device:CPU:0"
      attr {
        key: "dtype"
        value {
          type: DT_INT64
        }
      }
      attr {
        key: "value"
        value {
          tensor {
            dtype: DT_INT64
            tensor_shape {
            }
            int64_val: 1
          }
        }
      }
    }
    node_def {
      name: "PrefetchDataset"
      op: "PrefetchDataset"
      input: "PaddedBatchDatasetV2:handle:0"
      input: "PrefetchDataset/buffer_size_2:output:0"
      device: "/device:CPU:0"
      attr {
        key: "output_shapes"
        value {
          list {
            shape {
              dim {
                size: -1
              }
              dim {
                size: -1
              }
            }
            shape {
              dim {
                size: -1
              }
            }
            shape {
              dim {
                size: -1
              }
            }
            shape {
              dim {
                size: -1
              }
            }
            shape {
              dim {
                size: -1
              }
              dim {
                size: -1
              }
            }
            shape {
              dim {
                size: -1
              }
              dim {
                size: -1
              }
            }
            shape {
              dim {
                size: -1
              }
              dim {
                size: 2450
              }
            }
            shape {
              dim {
                size: -1
              }
              dim {
                size: 2450
              }
            }
          }
        }
      }
      attr {
        key: "output_types"
        value {
          list {
            type: DT_INT64
            type: DT_INT64
            type: DT_INT64
            type: DT_INT64
            type: DT_INT64
            type: DT_INT64
            type: DT_FLOAT
            type: DT_FLOAT
          }
        }
      }
    }
    ret {
      key: "prefetchdataset"
      value: "PrefetchDataset:handle:0"
    }
  }
  function {
    signature {
      name: "tf_data_structured_function_wrapper_TcbQUifozpg"
      input_arg {
        name: "arg0"
        type: DT_STRING
      }
      output_arg {
        name: "parse_sparsetodense_2"
        type: DT_INT64
      }
      output_arg {
        name: "parse_parsesingleexample_parsesingleexample"
        type: DT_INT64
      }
      output_arg {
        name: "parse_parsesingleexample_parsesingleexample_0"
        type: DT_INT64
      }
      output_arg {
        name: "parse_parsesingleexample_parsesingleexample_1"
        type: DT_INT64
      }
      output_arg {
        name: "parse_sparsetodense_3"
        type: DT_INT64
      }
      output_arg {
        name: "parse_sparsetodense_4"
        type: DT_INT64
      }
      output_arg {
        name: "parse_truediv"
        type: DT_FLOAT
      }
      output_arg {
        name: "parse_truediv_1"
        type: DT_FLOAT
      }
      description: "Wrapper for passing nested structures to and from tf.data functions."
    }
    node_def {
      name: "parse/ParseSingleExample/Const"
      op: "Const"
      device: "/device:CPU:0"
      attr {
        key: "dtype"
        value {
          type: DT_INT64
        }
      }
      attr {
        key: "value"
        value {
          tensor {
            dtype: DT_INT64
            tensor_shape {
              dim {
              }
            }
          }
        }
      }
    }
    node_def {
      name: "parse/ParseSingleExample/Const_1"
      op: "Const"
      device: "/device:CPU:0"
      attr {
        key: "dtype"
        value {
          type: DT_INT64
        }
      }
      attr {
        key: "value"
        value {
          tensor {
            dtype: DT_INT64
            tensor_shape {
              dim {
              }
            }
          }
        }
      }
    }
    node_def {
      name: "parse/ParseSingleExample/Const_2"
      op: "Const"
      device: "/device:CPU:0"
      attr {
        key: "dtype"
        value {
          type: DT_INT64
        }
      }
      attr {
        key: "value"
        value {
          tensor {
            dtype: DT_INT64
            tensor_shape {
              dim {
              }
            }
          }
        }
      }
    }
    node_def {
      name: "parse/ParseSingleExample/ParseSingleExample"
      op: "ParseSingleExample"
      input: "arg0"
      input: "parse/ParseSingleExample/Const:output:0"
      input: "parse/ParseSingleExample/Const_1:output:0"
      input: "parse/ParseSingleExample/Const_2:output:0"
      device: "/device:CPU:0"
      attr {
        key: "Tdense"
        value {
          list {
            type: DT_INT64
            type: DT_INT64
            type: DT_INT64
          }
        }
      }
      attr {
        key: "dense_keys"
        value {
          list {
            s: "n_links"
            s: "n_paths"
            s: "n_total"
          }
        }
      }
      attr {
        key: "dense_shapes"
        value {
          list {
            shape {
            }
            shape {
            }
            shape {
            }
          }
        }
      }
      attr {
        key: "num_sparse"
        value {
          i: 5
        }
      }
      attr {
        key: "sparse_keys"
        value {
          list {
            s: "delay"
            s: "links"
            s: "paths"
            s: "sequances"
            s: "traffic"
          }
        }
      }
      attr {
        key: "sparse_types"
        value {
          list {
            type: DT_FLOAT
            type: DT_INT64
            type: DT_INT64
            type: DT_INT64
            type: DT_FLOAT
          }
        }
      }
    }
    node_def {
      name: "parse/SparseToDense/default_value"
      op: "Const"
      device: "/device:CPU:0"
      attr {
        key: "dtype"
        value {
          type: DT_FLOAT
        }
      }
      attr {
        key: "value"
        value {
          tensor {
            dtype: DT_FLOAT
            tensor_shape {
            }
            float_val: 0.0
          }
        }
      }
    }
    node_def {
      name: "parse/SparseToDense"
      op: "SparseToDense"
      input: "parse/ParseSingleExample/ParseSingleExample:sparse_indices:4"
      input: "parse/ParseSingleExample/ParseSingleExample:sparse_shapes:4"
      input: "parse/ParseSingleExample/ParseSingleExample:sparse_values:4"
      input: "parse/SparseToDense/default_value:output:0"
      device: "/device:CPU:0"
      attr {
        key: "T"
        value {
          type: DT_FLOAT
        }
      }
      attr {
        key: "Tindices"
        value {
          type: DT_INT64
        }
      }
      attr {
        key: "validate_indices"
        value {
          b: true
        }
      }
    }
    node_def {
      name: "parse/sub/y"
      op: "Const"
      device: "/device:CPU:0"
      attr {
        key: "dtype"
        value {
          type: DT_FLOAT
        }
      }
      attr {
        key: "value"
        value {
          tensor {
            dtype: DT_FLOAT
            tensor_shape {
            }
            float_val: 0.5
          }
        }
      }
    }
    node_def {
      name: "parse/sub"
      op: "Sub"
      input: "parse/SparseToDense:dense:0"
      input: "parse/sub/y:output:0"
      device: "/device:CPU:0"
      attr {
        key: "T"
        value {
          type: DT_FLOAT
        }
      }
    }
    node_def {
      name: "parse/truediv/y"
      op: "Const"
      device: "/device:CPU:0"
      attr {
        key: "dtype"
        value {
          type: DT_FLOAT
        }
      }
      attr {
        key: "value"
        value {
          tensor {
            dtype: DT_FLOAT
            tensor_shape {
            }
            float_val: 0.5
          }
        }
      }
    }
    node_def {
      name: "parse/truediv"
      op: "RealDiv"
      input: "parse/sub:z:0"
      input: "parse/truediv/y:output:0"
      device: "/device:CPU:0"
      attr {
        key: "T"
        value {
          type: DT_FLOAT
        }
      }
    }
    node_def {
      name: "parse/SparseToDense_1/default_value"
      op: "Const"
      device: "/device:CPU:0"
      attr {
        key: "dtype"
        value {
          type: DT_FLOAT
        }
      }
      attr {
        key: "value"
        value {
          tensor {
            dtype: DT_FLOAT
            tensor_shape {
            }
            float_val: 0.0
          }
        }
      }
    }
    node_def {
      name: "parse/SparseToDense_1"
      op: "SparseToDense"
      input: "parse/ParseSingleExample/ParseSingleExample:sparse_indices:0"
      input: "parse/ParseSingleExample/ParseSingleExample:sparse_shapes:0"
      input: "parse/ParseSingleExample/ParseSingleExample:sparse_values:0"
      input: "parse/SparseToDense_1/default_value:output:0"
      device: "/device:CPU:0"
      attr {
        key: "T"
        value {
          type: DT_FLOAT
        }
      }
      attr {
        key: "Tindices"
        value {
          type: DT_INT64
        }
      }
      attr {
        key: "validate_indices"
        value {
          b: true
        }
      }
    }
    node_def {
      name: "parse/sub_1/y"
      op: "Const"
      device: "/device:CPU:0"
      attr {
        key: "dtype"
        value {
          type: DT_FLOAT
        }
      }
      attr {
        key: "value"
        value {
          tensor {
            dtype: DT_FLOAT
            tensor_shape {
            }
            float_val: 2.799999952316284
          }
        }
      }
    }
    node_def {
      name: "parse/sub_1"
      op: "Sub"
      input: "parse/SparseToDense_1:dense:0"
      input: "parse/sub_1/y:output:0"
      device: "/device:CPU:0"
      attr {
        key: "T"
        value {
          type: DT_FLOAT
        }
      }
    }
    node_def {
      name: "parse/truediv_1/y"
      op: "Const"
      device: "/device:CPU:0"
      attr {
        key: "dtype"
        value {
          type: DT_FLOAT
        }
      }
      attr {
        key: "value"
        value {
          tensor {
            dtype: DT_FLOAT
            tensor_shape {
            }
            float_val: 2.5
          }
        }
      }
    }
    node_def {
      name: "parse/truediv_1"
      op: "RealDiv"
      input: "parse/sub_1:z:0"
      input: "parse/truediv_1/y:output:0"
      device: "/device:CPU:0"
      attr {
        key: "T"
        value {
          type: DT_FLOAT
        }
      }
    }
    node_def {
      name: "parse/SparseToDense_2/default_value"
      op: "Const"
      device: "/device:CPU:0"
      attr {
        key: "dtype"
        value {
          type: DT_INT64
        }
      }
      attr {
        key: "value"
        value {
          tensor {
            dtype: DT_INT64
            tensor_shape {
            }
            int64_val: 0
          }
        }
      }
    }
    node_def {
      name: "parse/SparseToDense_2"
      op: "SparseToDense"
      input: "parse/ParseSingleExample/ParseSingleExample:sparse_indices:1"
      input: "parse/ParseSingleExample/ParseSingleExample:sparse_shapes:1"
      input: "parse/ParseSingleExample/ParseSingleExample:sparse_values:1"
      input: "parse/SparseToDense_2/default_value:output:0"
      device: "/device:CPU:0"
      attr {
        key: "T"
        value {
          type: DT_INT64
        }
      }
      attr {
        key: "Tindices"
        value {
          type: DT_INT64
        }
      }
      attr {
        key: "validate_indices"
        value {
          b: true
        }
      }
    }
    node_def {
      name: "parse/SparseToDense_3/default_value"
      op: "Const"
      device: "/device:CPU:0"
      attr {
        key: "dtype"
        value {
          type: DT_INT64
        }
      }
      attr {
        key: "value"
        value {
          tensor {
            dtype: DT_INT64
            tensor_shape {
            }
            int64_val: 0
          }
        }
      }
    }
    node_def {
      name: "parse/SparseToDense_3"
      op: "SparseToDense"
      input: "parse/ParseSingleExample/ParseSingleExample:sparse_indices:2"
      input: "parse/ParseSingleExample/ParseSingleExample:sparse_shapes:2"
      input: "parse/ParseSingleExample/ParseSingleExample:sparse_values:2"
      input: "parse/SparseToDense_3/default_value:output:0"
      device: "/device:CPU:0"
      attr {
        key: "T"
        value {
          type: DT_INT64
        }
      }
      attr {
        key: "Tindices"
        value {
          type: DT_INT64
        }
      }
      attr {
        key: "validate_indices"
        value {
          b: true
        }
      }
    }
    node_def {
      name: "parse/SparseToDense_4/default_value"
      op: "Const"
      device: "/device:CPU:0"
      attr {
        key: "dtype"
        value {
          type: DT_INT64
        }
      }
      attr {
        key: "value"
        value {
          tensor {
            dtype: DT_INT64
            tensor_shape {
            }
            int64_val: 0
          }
        }
      }
    }
    node_def {
      name: "parse/SparseToDense_4"
      op: "SparseToDense"
      input: "parse/ParseSingleExample/ParseSingleExample:sparse_indices:3"
      input: "parse/ParseSingleExample/ParseSingleExample:sparse_shapes:3"
      input: "parse/ParseSingleExample/ParseSingleExample:sparse_values:3"
      input: "parse/SparseToDense_4/default_value:output:0"
      device: "/device:CPU:0"
      attr {
        key: "T"
        value {
          type: DT_INT64
        }
      }
      attr {
        key: "Tindices"
        value {
          type: DT_INT64
        }
      }
      attr {
        key: "validate_indices"
        value {
          b: true
        }
      }
    }
    ret {
      key: "parse_parsesingleexample_parsesingleexample"
      value: "parse/ParseSingleExample/ParseSingleExample:dense_values:0"
    }
    ret {
      key: "parse_parsesingleexample_parsesingleexample_0"
      value: "parse/ParseSingleExample/ParseSingleExample:dense_values:1"
    }
    ret {
      key: "parse_parsesingleexample_parsesingleexample_1"
      value: "parse/ParseSingleExample/ParseSingleExample:dense_values:2"
    }
    ret {
      key: "parse_sparsetodense_2"
      value: "parse/SparseToDense_2:dense:0"
    }
    ret {
      key: "parse_sparsetodense_3"
      value: "parse/SparseToDense_3:dense:0"
    }
    ret {
      key: "parse_sparsetodense_4"
      value: "parse/SparseToDense_4:dense:0"
    }
    ret {
      key: "parse_truediv"
      value: "parse/truediv:z:0"
    }
    ret {
      key: "parse_truediv_1"
      value: "parse/truediv_1:z:0"
    }
  }
  function {
    signature {
      name: "tf_data_structured_function_wrapper_52oRgbbAY9U"
      input_arg {
        name: "arg0"
        type: DT_STRING
      }
      output_arg {
        name: "tfrecorddataset"
        type: DT_VARIANT
      }
      description: "Wrapper for passing nested structures to and from tf.data functions."
      is_stateful: true
    }
    node_def {
      name: "compression_type"
      op: "Const"
      device: "/device:CPU:0"
      attr {
        key: "dtype"
        value {
          type: DT_STRING
        }
      }
      attr {
        key: "value"
        value {
          tensor {
            dtype: DT_STRING
            tensor_shape {
            }
            string_val: ""
          }
        }
      }
    }
    node_def {
      name: "buffer_size"
      op: "Const"
      device: "/device:CPU:0"
      attr {
        key: "dtype"
        value {
          type: DT_INT64
        }
      }
      attr {
        key: "value"
        value {
          tensor {
            dtype: DT_INT64
            tensor_shape {
            }
            int64_val: 262144
          }
        }
      }
    }
    node_def {
      name: "TFRecordDataset"
      op: "TFRecordDataset"
      input: "arg0"
      input: "compression_type:output:0"
      input: "buffer_size:output:0"
      device: "/device:CPU:0"
    }
    ret {
      key: "tfrecorddataset"
      value: "TFRecordDataset:handle:0"
    }
  }
  function {
    signature {
      name: "tf_data_structured_function_wrapper_rn3e6kArW78"
      input_arg {
        name: "arg0"
        type: DT_STRING
      }
      output_arg {
        name: "flatmapdataset"
        type: DT_VARIANT
      }
      description: "Wrapper for passing nested structures to and from tf.data functions."
      is_stateful: true
    }
    node_def {
      name: "flat_filenames/shape"
      op: "Const"
      device: "/device:CPU:0"
      attr {
        key: "dtype"
        value {
          type: DT_INT32
        }
      }
      attr {
        key: "value"
        value {
          tensor {
            dtype: DT_INT32
            tensor_shape {
              dim {
                size: 1
              }
            }
            int_val: -1
          }
        }
      }
    }
    node_def {
      name: "flat_filenames"
      op: "Reshape"
      input: "arg0"
      input: "flat_filenames/shape:output:0"
      device: "/device:CPU:0"
      attr {
        key: "T"
        value {
          type: DT_STRING
        }
      }
      attr {
        key: "Tshape"
        value {
          type: DT_INT32
        }
      }
    }
    node_def {
      name: "TensorSliceDataset"
      op: "TensorSliceDataset"
      input: "flat_filenames:output:0"
      device: "/device:CPU:0"
      attr {
        key: "Toutput_types"
        value {
          list {
            type: DT_STRING
          }
        }
      }
      attr {
        key: "output_shapes"
        value {
          list {
            shape {
            }
          }
        }
      }
    }
    node_def {
      name: "FlatMapDataset"
      op: "FlatMapDataset"
      input: "TensorSliceDataset:handle:0"
      device: "/device:CPU:0"
      attr {
        key: "Targuments"
        value {
          list {
          }
        }
      }
      attr {
        key: "f"
        value {
          func {
            name: "tf_data_structured_function_wrapper_52oRgbbAY9U"
          }
        }
      }
      attr {
        key: "output_shapes"
        value {
          list {
            shape {
            }
          }
        }
      }
      attr {
        key: "output_types"
        value {
          list {
            type: DT_STRING
          }
        }
      }
    }
    ret {
      key: "flatmapdataset"
      value: "FlatMapDataset:handle:0"
    }
  }
}
versions {
  producer: 27
  min_consumer: 12
}
